rlsolver/trained_agent/eeco_maxcut_BA_200.pth (torch, 239426 bytes, 11 tensors)

node_init_embedding_layer.0.weight f4 [64, 7]
0	0xbe38adfc	-0.1803512
1	0xbef22827	-0.4729626
2	0xbfb6f9df	-1.4295005
3	0xbf1738c6	-0.59071004
4	0xbf6f7de1	-0.9355145
5	0xbe1645c7	-0.14675055
6	0xbfd178c6	-1.6364982
7	0x3e5dee32	0.21672896
8	0xbfedf81c	-1.8591342
9	0x3f10cf6f	0.5656652
10	0x3ef71e8e	0.482655
11	0x3c239084	0.009983186
12	0xbe73f2a6	-0.23823032
13	0x3e85cf01	0.26134494
14	0xbc70fb7b	-0.014708395
15	0xb94cef6d	-0.00019544149
16	0x3b8222a9	0.003971417
17	0xbbef54a8	-0.007303793
18	0xbc01f529	-0.007931986
19	0xbc2ce22c	-0.01055197
20	0xbc60ee6b	-0.013728718
21	0xbf8312ac	-1.0240073
22	0xbf0f7b2e	-0.5604733
23	0x3dfb0593	0.122569226
24	0xbfbf1156	-1.4927166
25	0xbc8ce743	-0.017200118
26	0x3db73f71	0.08947647
27	0xbe21f56d	-0.15816279
28	0xbe48526d	-0.19562693
29	0xbbbc441e	-0.005745425
30	0xbfc2b299	-1.5210754
31	0x3c2727df	0.010202377
32	0xbe12a1b8	-0.14319503
33	0xbd50c368	-0.050967604
34	0xbfd29709	-1.6452342
35	0xbf51eadb	-0.81998986
36	0xbdb8ff1a	-0.09033032
37	0xc01bbc48	-2.4333668
38	0xbe7f416c	-0.249273
39	0xbe80c57f	-0.25150678
40	0xbd94b1d0	-0.072604775
41	0xbf96976a	-1.1764958
42	0xbe1681b2	-0.14697912
43	0xbc84647b	-0.016161194
44	0xc01e9e27	-2.4784029
45	0xbeb67c8a	-0.3564189
46	0xbda6fefb	-0.081541024
47	0xbe31c317	-0.17359577
48	0xc0157a2a	-2.3355813
49	0xbeacc4ae	-0.33743805
50	0xbe932c6d	-0.28744832
51	0xbfcbbbda	-1.5916703
52	0xbdd4b2d7	-0.103856735
53	0xbea51b33	-0.32247314
54	0xbe659995	-0.22421868
55	0xbf7d4faf	-0.9894971
56	0xbd1f1afb	-0.03884409
57	0x3a2f22c7	0.00066809024
58	0xbc6a1b90	-0.014288798
59	0xbc1056e3	-0.008809778
60	0xbc99b5ca	-0.018763442
61	0xbd1f092d	-0.03882711
62	0xbc8c8469	-0.017152982
63	0xbe00255b	-0.1251425
64	0x3f99d804	1.2019048
65	0x3cbdc8ac	0.023166977
66	0xbf134204	-0.57522607
67	0x3c2193a8	0.009861864
68	0xbc77d4fc	-0.015126463
69	0x3e9de098	0.30835414
70	0xbf87732a	-1.058202
71	0x3eff5dd6	0.4987628
72	0x3e99308c	0.2991985
73	0x3dae191b	0.08500882
74	0xbdf3eed8	-0.1191079
75	0x3e12e53d	0.1434526
76	0xbddd9402	-0.10819246
77	0x3d96ac0f	0.07357036
78	0x3d005725	0.031333108
79	0xbbc120fd	-0.005893825
80	0xc0dfa1d2	-6.9885035
81	0x3ca0fd3c	0.019652002
82	0x3e9536d1	0.29143384
83	0x3eb4b99c	0.3529786
84	0x3cde96b8	0.027171478
85	0xbfbf6ba5	-1.4954726
86	0xbdd655a1	-0.10465551
87	0xbfd579a7	-1.667775
88	0x3be32484	0.0069318432
89	0xbdc7acaf	-0.09749734
90	0x3e96204c	0.29321516
91	0xbe0481e4	-0.12940174
92	0xbf26e8bd	-0.6519888
93	0xbfc696fe	-1.5514829
94	0x3e727e1c	0.2368092
95	0xbe1edbb6	-0.155135
96	0xbe2bbdd1	-0.16771628
97	0xbf526d31	-0.8219786
98	0xbeca656a	-0.39530498
99	0x3a28dd6f	0.00064416876
100	0xbe690a61	-0.22757865
101	0xbe170e22	-0.14751485
102	0xbeac1fbb	-0.33617958
103	0xbf18bc18	-0.5966201
104	0xbaa7904a	-0.001278409
105	0xbf869131	-1.0513059
106	0xbd85ec01	-0.06539155
107	0xbfe14ff8	-1.760253
108	0x3d86f6a6	0.06590013
109	0xbe11ad7b	-0.14226334
110	0xbe81d20e	-0.25355572
111	0xbf21acdd	-0.63154393
112	0x3e50ba14	0.20383483
113	0xbdb3b213	-0.08774199
114	0xbd94a10a	-0.07257278
115	0x3e938b94	0.28817427
116	0xbeec8d5d	-0.46201602
117	0xbf385bfb	-0.7201535
118	0xbec341e2	-0.38136202
119	0xbe2e2ced	-0.17009325
120	0x3a24deeb	0.0006289321
121	0xc059f828	-3.4057713
122	0x3a263d9b	0.00063415774
123	0xbe114572	-0.14186648
124	0xbc5d5465	-0.013508891
125	0xc07d60ed	-3.9590409
126	0x3dfd25b7	0.12360709
127	0x3eb1c74d	0.34722367
128	0x3e69902b	0.22808902
129	0x3da3a646	0.079906985
130	0xbeb388b2	-0.35065228
131	0xbebf006c	-0.3730501
132	0xbb9485d8	-0.004532557
133	0x3e5fd5cc	0.21858901
134	0x3f94f81c	1.1638217
135	0x3ec65423	0.38736066
136	0xbf3fc254	-0.74905896
137	0x3c8bbd81	0.017058136
138	0xbe0f57f5	-0.13998397
139	0x3ef38dfc	0.47569263
140	0xbee96848	-0.45587373
141	0xbc8cd66b	-0.017192086
142	0xbfc87e78	-1.5663595
143	0x3dc08895	0.09401051
144	0xbe673134	-0.22577363
145	0xbea6f752	-0.32610565
146	0xbf7ec9f3	-0.995269
147	0xbf25ef94	-0.6481869
148	0xbd496015	-0.049163897
149	0xbf949084	-1.1606603
150	0x3ed62c7a	0.41830808
151	0xbe96f90d	-0.29486886
152	0xbe819236	-0.25306863
153	0xbf81c964	-1.0139585
154	0xbba3f2fd	-0.0050033317
155	0xb9974b79	-0.00028857196
156	0xbc41afd7	-0.011821709
157	0xbc68729d	-0.014187482
158	0xbccc65a9	-0.02495082
159	0xbc9b08e2	-0.018925134
160	0xbc050901	-0.0081198225
161	0xbe6cec69	-0.23137058
162	0xbc85fed9	-0.016356872
163	0xbe8f3fd5	-0.27978387
164	0x3ada11ef	0.0016637425
165	0xbe9921fa	-0.29908735
166	0xbe4c53d9	-0.1995386
167	0xbf3391c4	-0.70144296
168	0xbd5c3372	-0.05376
169	0xbb818d53	-0.0039536147
170	0xbfdebd39	-1.7401496
171	0xbdb53159	-0.08847303
172	0xbdaf840f	-0.0857011
173	0xbd289f1c	-0.041167364
174	0xbfd5b8b0	-1.6696987
175	0xbeadd7b8	-0.33953643
176	0xbf16c8c3	-0.5890009
177	0xbf9298df	-1.1452903
178	0xbe1cc03a	-0.15307704
179	0xbf8974cd	-1.073877
180	0xbe900c5d	-0.28134432
181	0xbf6c612b	-0.92335767
182	0x3df5d7b3	0.12004032
183	0xbe66e942	-0.22549918
184	0xc03e08f4	-2.9692965
185	0xbd579459	-0.05263171
186	0xbdcce5c0	-0.10004759
187	0xbe6710d8	-0.22565019
188	0xc063ce6e	-3.5594745
189	0x3dec8e61	0.11550594
190	0x3fabf073	1.3432754
191	0xbdbd1199	-0.09231872
192	0x3eb4c593	0.35306987
193	0x3ba95791	0.0051679094
194	0x3e0927d0	0.13394094
195	0x3e2c1637	0.1680535
196	0x3d31a626	0.043371342
197	0x3f10347e	0.56330097
198	0x3eb25475	0.3483006
199	0xbd8c5d81	-0.06853772
200	0xbf36a0c3	-0.7133905
201	0x3d990325	0.07471303
202	0x3edb6cac	0.42856348
203	0xbd9340d3	-0.071900986
204	0x38ff5fa3	0.00012177161
205	0xbd8b9e63	-0.06817319
206	0xbe91dde8	-0.28489614
207	0xbd637475	-0.055530984
208	0xbe2db994	-0.16965324
209	0xbd36bcff	-0.044613834
210	0xbc32f918	-0.010923646
211	0x39fa1282	0.00047697505
212	0xbc3d65d8	-0.011559926
213	0xbbd598e6	-0.006518471
214	0xbb47523f	-0.0030414013
215	0xbc8601ad	-0.016358221
216	0xbcd47fa7	-0.025939776
217	0xbf44c1e6	-0.76858366
218	0x3d9a394c	0.0753046
219	0x3da28310	0.079351544
220	0xbf31a1f1	-0.6938773
221	0xbf049c81	-0.51801306
222	0x3c99648a	0.018724699
223	0x3f0086a6	0.5020546
224	0xbce57fb4	-0.028014995
225	0xbeb7f29a	-0.35927278
226	0xc08c5158	-4.3849297
227	0xbd001f44	-0.031279817
228	0xbf22e503	-0.63630694
229	0xbead7703	-0.3387986
230	0xbf826b84	-1.0189061
231	0xbfa27223	-1.2691082
232	0xbe85d792	-0.2614103
233	0xbf93d3db	-1.1549028
234	0x3f1f6e61	0.622778
235	0xbed9e2b8	-0.42555785
236	0xbe20d7e1	-0.15707351
237	0xbf6beb6b	-0.92156094
238	0xbf7c561f	-0.9856891
239	0xbe597045	-0.21234234
240	0xbfdf77d1	-1.745844
241	0xbc597f2b	-0.013274948
242	0xbdbae2b3	-0.09125271
243	0xbdcb2062	-0.09918286
244	0xbfbf70cf	-1.4956301
245	0xbd0a4b53	-0.03376324
246	0x3f1bdb50	0.6088152
247	0xbff7e2c0	-1.9366074
248	0x3e6d3f5e	0.23168704
249	0xbd67a647	-0.05655506
250	0xbff9806a	-1.9492314
251	0xbe1bf33f	-0.1522951
252	0x3c572dde	0.013133494
253	0xbc168f91	-0.009189502
254	0xc016f8f4	-2.358945
255	0xbc390f67	-0.011295176

edge_embedding_layer.edge_embedding_NN.weight f4 [63, 8]
0	0x388c0815	6.6772256e-05
1	0xbcc372d5	-0.023858467
2	0x39066bc3	0.0001281938
3	0xbbb47401	-0.005506993
4	0xbc5d6852	-0.013513641
5	0xbb5390df	-0.0032282395
6	0xbcd42694	-0.025897302
7	0xbb698d27	-0.0035637112
8	0x3b1742ef	0.0023080667
9	0xbcc2c356	-0.023774784
10	0x3c034809	0.00801278
11	0xbd7afd13	-0.061276507
12	0xbc57aa08	-0.013163097
13	0xbc96acf1	-0.018393012
14	0xbd998f04	-0.07497981
15	0xbd5bcf5a	-0.053664543
16	0x3d19255c	0.037389144
17	0xbe4389cc	-0.19095534
18	0x3f266cce	0.6500977
19	0x3e4c4d78	0.19951427
20	0xbeaadd4c	-0.3337196
21	0xbeffda4d	-0.49971238
22	0xbf87622f	-1.0576838
23	0xbda8576f	-0.08219802
24	0xbabf3ef4	-0.0014590905
25	0xbb82dec6	-0.003993842
26	0x3a1dc9c9	0.0006019143
27	0xbbb3402d	-0.005470297
28	0xb9efd9ff	-0.00045748052
29	0xbb5d3615	-0.003375416
30	0xbc45991a	-0.012060428
31	0xbc9ed326	-0.019387793
32	0xbb2ddc60	-0.0026529059
33	0xbe9161e3	-0.28394994
34	0x3c640d34	0.0139191635
35	0xbe8f254a	-0.27958137
36	0xbb968bba	-0.0045942934
37	0xbe099286	-0.134348
38	0xbe846e3a	-0.25865346
39	0xbeb12176	-0.3459584
40	0x3e3a7434	0.1820839
41	0xbed78ca5	-0.4209949
42	0x3f1d5c08	0.61468554
43	0x3cd03d7e	0.025419947
44	0xbeeba09b	-0.4602097
45	0xbe33f20b	-0.17572801
46	0xbfb6610b	-1.4248365
47	0xbdfb8b6e	-0.122824535
48	0x3ab7344f	0.0013977381
49	0xbc8fa616	-0.01753525
50	0x38f4ecad	0.00011678911
51	0xbb8c0356	-0.0042728586
52	0xbc98fd3a	-0.018675435
53	0xbc71bc3f	-0.014754354
54	0xbbe03e47	-0.0068433615
55	0xbc95b13a	-0.018272985
56	0xb8080782	-3.243192e-05
57	0xbc6386b3	-0.013887095
58	0x39d87852	0.00041288376
59	0xbbdc77be	-0.0067281416
60	0xbc1f45de	-0.0097212475
61	0xbbc5a5a6	-0.0060317097
62	0xbb92942f	-0.0044732313
63	0xbbc19599	-0.005907726
64	0xbf0d7e22	-0.5527059
65	0x3e1b884b	0.1518871
66	0x3f6268b6	0.88441026
67	0xbfcb5ea4	-1.5888257
68	0xbc6a6002	-0.014305117
69	0xbcaa3c4c	-0.020780705
70	0x3ebad480	0.3649025
71	0xbefb7b69	-0.49117592
72	0x3aad5953	0.0013225473
73	0xbc7e71f0	-0.0155300945
74	0x3a8eda47	0.0010898792
75	0xbc87f58a	-0.016596574
76	0xbc603b00	-0.013685942
77	0xbb4016ca	-0.0029310458
78	0xbcaeb293	-0.021325385
79	0xbc3d4a02	-0.011553289
80	0xbb17f1d2	-0.0023184908
81	0xbe6b82fb	-0.22999184
82	0x3d5de4eb	0.05417339
83	0xbf5bfc66	-0.85932004
84	0xbda11fd9	-0.078674026
85	0xbdcb73cf	-0.09934198
86	0xbf011218	-0.50418234
87	0xbf394966	-0.7237762
88	0x3edd57c4	0.43231022
89	0x3e11951a	0.14217034
90	0xbe0c983b	-0.13729946
91	0xbf146b78	-0.57976484
92	0x3e831338	0.256006
93	0x3c9a7e2c	0.018858992
94	0xbfd2765f	-1.6442374
95	0xbf47ea4f	-0.780919
96	0xbcea1bd6	-0.028577726
97	0xbf5e4977	-0.8683085
98	0x3d8cb893	0.06871142
99	0xbffe1bd3	-1.9852241
100	0x3e0c2a76	0.13688073
101	0xbdebfdbe	-0.11523007
102	0xbed2c858	-0.41168475
103	0xbfe58e11	-1.793398
104	0xbde2e733	-0.11079254
105	0xbf3a256c	-0.7271335
106	0x3ed2c36c	0.4116472
107	0xbf443607	-0.7664494
108	0xbe36cb5a	-0.1785101
109	0xbe385b12	-0.1800349
110	0xbf051fda	-0.52001727
111	0xbf8f313e	-1.1186903
112	0xbf2dc234	-0.67874455
113	0x3edf3c24	0.4360057
114	0x3e9ac7e5	0.30230632
115	0xbd8847e6	-0.066543385
116	0xbe3e44f7	-0.18580996
117	0xbb9624cc	-0.0045820232
118	0x3e806fcc	0.25085294
119	0xbf530435	-0.82428294
120	0x3b90a711	0.004414447
121	0xbee56c2f	-0.448091
122	0x3ccd863a	0.025088418
123	0xbde5c53b	-0.11219259
124	0xbd6b8ea1	-0.05750907
125	0xbe7fcee6	-0.24981269
126	0xbe81a818	-0.25323558
127	0xbe31433b	-0.17310803
128	0xbf6c667a	-0.92343867
129	0x3e1fc96d	0.15604182
130	0xbd47f72b	-0.048819702
131	0xbd6e8c75	-0.05823942
132	0xbca6f226	-0.020379137
133	0xbc1d74f0	-0.0096104
134	0x3e14ea5a	0.14542523
135	0xbf462145	-0.77394515
136	0xba623ae6	-0.00086299924
137	0xbcc4a706	-0.024005424
138	0xba848347	-0.0010109924
139	0xbcbe9b06	-0.02326728
140	0xbbbcbc7f	-0.005759775
141	0xbd1600f4	-0.036622003
142	0xbcc8193d	-0.024426097
143	0xbd6a9e1b	-0.057279687
144	0x3dc2af8d	0.0950614
145	0xbd291338	-0.041278094
146	0xbf0b0520	-0.54304695
147	0xbeeb2e08	-0.45933557
148	0xbf634f1c	-0.88792586
149	0xbeb90ba6	-0.361417
150	0xbee4f0ff	-0.44715115
151	0xbf6040c3	-0.8759882
152	0x3f43815b	0.76369256
153	0xbe20a73c	-0.15688795
154	0x3eb36149	0.3503516
155	0xbf31ac00	-0.69403076
156	0xbda614a4	-0.08109406
157	0x3b012a09	0.0019708893
158	0xbda32cd3	-0.07967534
159	0xbf31cd2f	-0.6945371
160	0xbdd6fcba	-0.104974225
161	0xbec7776f	-0.38958308
162	0x3eb3e541	0.35135844
163	0xbfa0dc73	-1.2567276
164	0xbddd2c0d	-0.10799418
165	0xbe476dc8	-0.19475472
166	0xbf35dd10	-0.7104044
167	0xbfa438f4	-1.2829881
168	0x3aefe6be	0.001830302
169	0xbe168bd2	-0.14701775
170	0x3b3bd5d3	0.0028661385
171	0xbe4b29f8	-0.19840229
172	0xbd6abace	-0.057307057
173	0xbd088a67	-0.033335116
174	0xbd03a282	-0.0321374
175	0xbe57125e	-0.210031
176	0x3e923882	0.28558737
177	0xbf99e520	-1.2023048
178	0x3f01a74a	0.5064589
179	0xbf369578	-0.7132182
180	0xbedd8135	-0.4326264
181	0xbb93f021	-0.0045147096
182	0xbf5abb50	-0.85442066
183	0x3e269759	0.16268672
184	0x3f78f453	0.9724781
185	0x3cedd61d	0.029032761
186	0x3b08b700	0.002086103
187	0xbe55c825	-0.2087713
188	0x3d534ccb	0.051586907
189	0x3ab3d5e8	0.0013720365
190	0xbea16fac	-0.3153051
191	0xbf3f0559	-0.74617535
192	0xbc49c4a2	-0.012314947
193	0xbd9944fb	-0.0748386
194	0xb9cd8afa	-0.00039204193
195	0xbd95f1eb	-0.07321533
196	0xbd71b8e6	-0.059014224
197	0xbdc1c344	-0.09461072
198	0xbe2ff48d	-0.17183132
199	0xbddb7d12	-0.10717215
200	0x3da07985	0.07835678
201	0xbf36d3af	-0.71416754
202	0x3e0d9305	0.13825615
203	0xc0263583	-2.597016
204	0x3ee03106	0.43787402
205	0xbdcb2178	-0.09918493
206	0x3ea7d5e8	0.32780385
207	0xc014de8f	-2.326084
208	0xbcc26294	-0.023728646
209	0xbeb72b3b	-0.3577517
210	0x3d3a2b0a	0.0454512
211	0xbf553230	-0.83279705
212	0xbd416ec6	-0.047224782
213	0xbbcb193a	-0.0061980756
214	0xbf003d08	-0.50093126
215	0xbf3e0e29	-0.74240357
216	0x3e3f49c5	0.18680485
217	0xbf36a680	-0.7134781
218	0x3c043048	0.008068152
219	0xbfbc64bf	-1.4718245
220	0x3e1251c5	0.14289005
221	0xbe79eeb9	-0.24407472
222	0xbee61908	-0.44940972
223	0xbfc1ab0a	-1.5130322
224	0xba9fc3c9	-0.0012189086
225	0xbca06108	-0.019577518
226	0x39cc5d3c	0.00038979377
227	0xbc08fafb	-0.00836062
228	0xbc6fe25c	-0.014641371
229	0xbc766b26	-0.015040195
230	0xbc4c8808	-0.012483604
231	0xbcc78fba	-0.024360526
232	0xbcea8f9d	-0.028632933
233	0xbea8bcd7	-0.32956573
234	0x3daf10e5	0.08548144
235	0xbec44fdc	-0.38342178
236	0xbd94eb6b	-0.07271465
237	0xbdd3c8ab	-0.10341009
238	0xbf52103b	-0.82056016
239	0xbe98e449	-0.29861668
240	0xbd9dc43e	-0.07703446
241	0xbd1bce19	-0.038038347
242	0x3f334c5a	0.7003838
243	0xbf3126dc	-0.6919992
244	0xbd672964	-0.056435958
245	0xbc0d421e	-0.008621721
246	0xbf110cd4	-0.566602
247	0xbf7172e1	-0.94315916
248	0xbb414444	-0.0029490152
249	0xbd0c5bbb	-0.03426717
250	0x3b97cdcc	0.004632687
251	0xbd26136b	-0.040545862
252	0xbce0822b	-0.027405819
253	0xbc81ca3b	-0.015843501
254	0xbd950559	-0.072764106
255	0xbcc1aabf	-0.023640988

edge_embedding_layer.edge_feature_NN.weight f4 [64, 64]
0	0xba8b1d6a	-0.0010613624
1	0xbba7c1d6	-0.0051195426
2	0x3f119534	0.5686829
3	0x3bf0c788	0.0073480047
4	0x3e4e1d39	0.20128335
5	0x3d708aca	0.05872611
6	0xbbe3a6a8	-0.006947357
7	0x3bd04d39	0.006356862
8	0x3ee99cba	0.45627385
9	0x3b9d19d2	0.004794338
10	0x3e0c1267	0.13678895
11	0x3dd8e082	0.105896965
12	0x3e96edd8	0.29478335
13	0x3d97a457	0.07404392
14	0xbf0bd574	-0.5462258
15	0x3e0c5da7	0.137076
16	0xbf139217	-0.5764479
17	0x3bfcf552	0.007719674
18	0xbd727ce9	-0.059201155
19	0xbf9195a1	-1.1373788
20	0x3ea404dd	0.3203496
21	0x3dcaec5e	0.09908365
22	0x3f14e931	0.5816832
23	0xbfabb1aa	-1.3413594
24	0x3cb30c6c	0.02185651
25	0x3ee47c27	0.4462597
26	0x3eb74317	0.35793373
27	0xbe298acc	-0.16556853
28	0x3b50f1fc	0.0031882515
29	0x3e50a0da	0.2037386
30	0x3ed5f920	0.4179163
31	0xbbb5385b	-0.0055303997
32	0xbf6a8a9a	-0.9161774
33	0x3e446451	0.19178893
34	0x3f12eb03	0.5738985
35	0x3f1c8e12	0.6115428
36	0x3e1b974d	0.15194435
37	0x3e248aa3	0.1606851
38	0x3bc75420	0.0060830265
39	0x3e599708	0.2124902
40	0x3e530d99	0.20610656
41	0x3f4b4fbe	0.7941855
42	0x3eb8ecdf	0.36118218
43	0x3f0320b8	0.512218
44	0x3e8905d4	0.2676226
45	0x3e8ca378	0.27468467
46	0x3f15ff17	0.5859236
47	0xbf03fd4d	-0.5155838
48	0xbd053dfe	-0.032529823
49	0x3eb0624c	0.34449995
50	0xbc70b09c	-0.014690544
51	0x3e793841	0.24337865
52	0x3ee8d870	0.4547763
53	0xbb9bba88	-0.004752461
54	0x3d92d629	0.07169754
55	0x3ee03a4f	0.43794486
56	0x3c923b33	0.017850494
57	0x3f155f1f	0.5834827
58	0xbf0fd1b8	-0.5617938
59	0x3ecd7a8e	0.40132564
60	0xbeefdceb	-0.46848235
61	0x3e0dff64	0.13866955
62	0x3bfea2b6	0.0077708615
63	0xbd0ca85d	-0.03434025
64	0xbc3a7db4	-0.011382509
65	0xbcbd58c7	-0.023113621
66	0xbc39d4a8	-0.011342205
67	0xbad3114d	-0.0016103178
68	0x3b537c11	0.0032269994
69	0xb9ea72dc	-0.00044717535
70	0x3bdd009c	0.0067444574
71	0x3b8c567a	0.0042827697
72	0x3bb1be85	0.005424323
73	0x3bf00e00	0.0073258877
74	0xbac83a68	-0.0015276195
75	0xbc08de22	-0.008353742
76	0xbc7b99f2	-0.015356528
77	0xbc8a66fe	-0.016894814
78	0xbc668810	-0.014070526
79	0xb9fe3179	-0.00048483515
80	0xbc265114	-0.0101511665
81	0xbc155072	-0.009113418
82	0xbb46d946	-0.0030341907
83	0xbc69d6bf	-0.014272391
84	0xbbb26c22	-0.0054450193
85	0xbc884e94	-0.016639031
86	0x39435965	0.00018629951
87	0xb831e96c	-4.241748e-05
88	0x3afa02c2	0.0019074308
89	0xbc95efa3	-0.018302744
90	0xba355a0b	-0.00069180195
91	0xbc297321	-0.01034239
92	0xbc8fa9ca	-0.017537016
93	0xbb527e4c	-0.0032118736
94	0xbb36aa29	-0.002787242
95	0xbbf97d8d	-0.007613844
96	0xbd17625d	-0.03695904
97	0xbc75ad1a	-0.014994884
98	0x3c69ecde	0.014277665
99	0x3b6c0d81	0.003601879
100	0xbc17698e	-0.009241475
101	0xbb9269c5	-0.004468175
102	0x3c86f1f9	0.016472803
103	0xbcadc84f	-0.021213679
104	0xbb47e693	-0.0030502423
105	0x3a4571c0	0.00075319037
106	0x3b9d0af3	0.004792565
107	0x3b6046c9	0.0034221879
108	0xbcce2dd2	-0.025168333
109	0xbbbc4314	-0.005745301
110	0xbc148361	-0.009064526
111	0xbc0eeec3	-0.008723917
112	0xbcb52e88	-0.022116914
113	0xbcc80905	-0.024418363
114	0x3b3a47c8	0.0028424133
115	0x3bcc5964	0.006236242
116	0xbc3386f2	-0.010957466
117	0x3b848a6d	0.004044822
118	0xbc1445b1	-0.009049819
119	0xbc42bfa0	-0.011886507
120	0x3c824310	0.015901119
121	0xbb5f7199	-0.003409481
122	0xbc0c6be7	-0.008570648
123	0xbba30fc3	-0.004976244
124	0xbc83076a	-0.015994746
125	0xbd433067	-0.047653582
126	0xbada73af	-0.0016666556
127	0xbd47bf8d	-0.04876666
128	0xbc7ac735	-0.015306284
129	0xb9dcd807	-0.00042122623
130	0x3e6508db	0.2236666
131	0x3acd543a	0.001566536
132	0xbb86ed48	-0.0041176416
133	0x3e192cc0	0.14958477
134	0xbb425ead	-0.0029658482
135	0x3b34cce9	0.0027587956
136	0x3d277f56	0.04089292
137	0x3b8e0d7c	0.0043351036
138	0x3c128e59	0.008945071
139	0xbe2d552a	-0.16927019
140	0xbddf7409	-0.10910804
141	0x3db97970	0.090563655
142	0xbd53b808	-0.051689178
143	0xbd83db84	-0.06438354
144	0x3c052f66	0.008128976
145	0x3c151937	0.00910025
146	0xbf09e194	-0.5385983
147	0xbe4fa562	-0.20277932
148	0x3d52298a	0.051309146
149	0x3d0c6649	0.034277234
150	0x3ead47ad	0.33843747
151	0xbe5fee59	-0.21868266
152	0xbd93821f	-0.07202553
153	0xbe0defc2	-0.13860992
154	0x3d360c00	0.044445038
155	0xbe5fcb8c	-0.2185499
156	0x3bbae153	0.0057031303
157	0x3e7a57b9	0.24447526
158	0x3e51e029	0.20495667
159	0x3b048a0f	0.002022389
160	0xbe2a5add	-0.16636224
161	0x3de91ab6	0.11382048
162	0xbd36320f	-0.044481333
163	0xbe1cb762	-0.1530433
164	0xbd5816eb	-0.05275623
165	0x3dcc7afb	0.09984394
166	0x3c97d201	0.018532755
167	0xbe61c200	-0.22046661
168	0xbcb60f02	-0.022223953
169	0x3e79e629	0.24404205
170	0xbeac159c	-0.33610237
171	0x3dde6532	0.10859145
172	0xbeb0927e	-0.34486765
173	0x3a10085c	0.00054944097
174	0xbe5fd551	-0.21858718
175	0xbe5f772b	-0.21822803
176	0xbf098e78	-0.53733015
177	0xbe01cb6a	-0.12675253
178	0x3c200215	0.009766121
179	0x3e44ecad	0.1923091
180	0xbde408e0	-0.11134505
181	0x3c0afd58	0.008483253
182	0xbee105f7	-0.43949863
183	0x3d4db995	0.050225813
184	0xbd70c659	-0.05878291
185	0xbe86c94a	-0.26325446
186	0xbe2e3a90	-0.17014527
187	0x3d9f8237	0.077885084
188	0xbec4a40c	-0.38406408
189	0xbe6170f7	-0.22015749
190	0xbb87b60c	-0.0041415747
191	0xbd60d7c2	-0.054893263
192	0xbb88c63c	-0.004174022
193	0x3c9f438a	0.019441385
194	0xbd6c6aea	-0.05771915
195	0xbbcec90c	-0.0063105877
196	0x3bccd589	0.0062510413
197	0xbc801a7a	-0.015637625
198	0xbcb906d4	-0.022586264
199	0xbc9237e4	-0.017848916
200	0x3d74f2b6	0.05980178
201	0x3a703ec9	0.0009164629
202	0xbe182934	-0.14859468
203	0x3e6cd952	0.23129776
204	0xbe1ad42c	-0.1512
205	0x3c042af7	0.008066884
206	0xbf042912	-0.5162517
207	0xbc4c45dd	-0.012467829
208	0xbd7c05e5	-0.06152906
209	0xbba5ec0f	-0.005063541
210	0x3be46fd7	0.00697134
211	0xbdc751a2	-0.09732367
212	0xbe2dd1aa	-0.16974512
213	0xbcae03e0	-0.021242082
214	0x3e3a7407	0.18208323
215	0xbe68f29e	-0.22748801
216	0xbb708a15	-0.0036703397
217	0x3c2c854e	0.010529829
218	0x3bea4290	0.007149048
219	0xbcccf2d2	-0.02501813
220	0xb9f477db	-0.00046628606
221	0x3bf187b3	0.007370913
222	0xbd3a6b02	-0.045512207
223	0x3c1633e0	0.009167641
224	0xbd962151	-0.07330573
225	0xbc4c4b8c	-0.012469184
226	0xbd0495a7	-0.032369282
227	0xbc74a0a9	-0.0149308825
228	0xbe270dff	-0.16313933
229	0xbcfd5f3d	-0.030929202
230	0x3c5e28f8	0.013559572
231	0x3d8ece51	0.069729455
232	0xbd02cc68	-0.03193322
233	0x3d5c3fb7	0.0537717
234	0xbe4fda99	-0.20298232
235	0xbad9b0a0	-0.0016608424
236	0xbdd70dce	-0.1050068
237	0x3b6db6a1	0.0036272185
238	0xbdea7c32	-0.114494696
239	0x3e01a4bc	0.12660497
240	0x3d811c13	0.06304183
241	0xbd9b7ee5	-0.075925626
242	0xb7e75f97	-2.7581858e-05
243	0xbca0df28	-0.01963766
244	0x3d0da848	0.034584314
245	0xbc09fd67	-0.008422232
246	0xbdb8e937	-0.09028857
247	0xbc2458b1	-0.010030911
248	0x3bb1b881	0.005423606
249	0xbe41cf6c	-0.18926781
250	0xbebfbea6	-0.3745014
251	0xbacb9622	-0.0015532414
252	0xbe94a1c0	-0.29029655
253	0xbd776b23	-0.060404908
254	0x3c87ae27	0.016562534
255	0xbe3cb038	-0.18426597

update_node_embedding_layer.0.message_layer.weight f4 [64, 128]
0	0xbcab6dcf	-0.020926384
1	0x3e55259b	0.20815127
2	0x3c82a9fd	0.015950197
3	0xbd7f555b	-0.06233726
4	0xbe29191e	-0.16513488
5	0x3da90f8a	0.08254917
6	0xbea90215	-0.330094
7	0xbe341fc0	-0.17590237
8	0xbc0d8ec9	-0.00864
9	0x3f71ea2e	0.94497955
10	0xbe1724ed	-0.1476018
11	0xbf011674	-0.50424886
12	0x3d810117	0.06299036
13	0x3e2a3cdf	0.16624783
14	0xbbaf7a8b	-0.0053551844
15	0xbe4aab77	-0.19791971
16	0x3e3c6980	0.1839962
17	0x3d3650ae	0.044510536
18	0x3ea5a30d	0.3235096
19	0x3f171be9	0.5902696
20	0xbe5389ac	-0.20657986
21	0xbe4fa692	-0.20278385
22	0xba27aae5	-0.00063960097
23	0xbe74c6e9	-0.23904003
24	0xbcf23ed7	-0.02957098
25	0xbe84bcf0	-0.25925398
26	0xbf074ba4	-0.52849793
27	0x3f81f966	1.0154235
28	0x3e9919be	0.29902452
29	0x3acb62b2	0.0015517084
30	0xbbced2b9	-0.006311741
31	0x3dcd94c2	0.10038139
32	0xbe3d2e2d	-0.18474646
33	0xbe4fcb38	-0.20292366
34	0xbedf5af2	-0.43624073
35	0x3e500119	0.20312919
36	0xbe80b93d	-0.25141326
37	0x3e1d9578	0.15389049
38	0xbc9e4c52	-0.019323502
39	0xbf101408	-0.56280565
40	0xbec7a616	-0.389939
41	0x3d3c24e3	0.045933615
42	0xbe8f20e1	-0.27954772
43	0xbdd52ff2	-0.104095355
44	0x3e3ed324	0.18635231
45	0xbe81172a	-0.25212985
46	0x3e869769	0.26287392
47	0xbd030c8d	-0.03199439
48	0xbe349248	-0.17633927
49	0xbbfd6f37	-0.007734205
50	0xbd7f63e5	-0.062351126
51	0x3e4e800e	0.20166036
52	0xbef1febe	-0.47264665
53	0xbeca755d	-0.39542666
54	0xbe4d8443	-0.20069985
55	0x3ce31b79	0.02772306
56	0xbd42d4e6	-0.047566317
57	0x3ca5d7df	0.020244537
58	0xbf2a14cb	-0.6643798
59	0x3da50fa5	0.080596246
60	0x3e624d1a	0.22099724
61	0x3c17a194	0.009254832
62	0x3e25cd0c	0.161915
63	0x3ca5c913	0.020237481
64	0xbf2d2a99	-0.67643124
65	0xbba31a5b	-0.004977507
66	0x3c86e5c2	0.016466979
67	0x3e0d64e2	0.13808015
68	0x3c4b814d	0.012420964
69	0xba51fece	-0.0008010686
70	0xbbc6630c	-0.006054288
71	0xbeef60ca	-0.46753532
72	0xba62b11d	-0.0008647608
73	0xbcfb36c3	-0.03066576
74	0xbaf04e04	-0.0018333797
75	0xbe2a9210	-0.16657281
76	0xbc03ff89	-0.00805653
77	0xba546554	-0.0008102257
78	0xbc38f585	-0.011289005
79	0xbaaeea5f	-0.0013344995
80	0xbd1f57cb	-0.038902085
81	0xbc39b69f	-0.011335044
82	0xbf3309a0	-0.6993656
83	0xbb91914a	-0.0044423686
84	0xbc5d0f59	-0.013492429
85	0xbd81f681	-0.06345845
86	0xbec0a089	-0.3762248
87	0xbf1bc65e	-0.6084956
88	0x3bc34442	0.0059590647
89	0xbbedf08f	-0.007261343
90	0xbbd63b5e	-0.006537839
91	0x3b046fea	0.0020208308
92	0x3ce87fd7	0.028381271
93	0xbc21efd2	-0.009883838
94	0xbbb141ba	-0.0054094465
95	0xbdcb41f7	-0.09924691
96	0xbdbf898a	-0.09352405
97	0xbf0b7f7f	-0.5449142
98	0xbd418556	-0.0472463
99	0xbf09ded2	-0.5385562
100	0xbdac0f13	-0.08401313
101	0xbe41375e	-0.18868777
102	0x3deea4f2	0.116525546
103	0x3af7aafa	0.001889556
104	0x3c10f46e	0.008847339
105	0xbdeed4a1	-0.116616495
106	0xbd9d5fcb	-0.07684287
107	0xbe539a6b	-0.20664375
108	0xbca09447	-0.019601954
109	0xbc9e600e	-0.019332912
110	0x3e41e3a3	0.18934493
111	0xbd5ada71	-0.05343098
112	0xbec68e74	-0.38780558
113	0xbd2f3b69	-0.042781267
114	0xbc1f542e	-0.00972466
115	0xbbd12d9a	-0.00638361
116	0xbca4d9e8	-0.020123437
117	0x3a5ed0fc	0.0008499769
118	0xbbec149c	-0.0072046053
119	0x3bf8db0f	0.007594473
120	0xbdb542b2	-0.08850612
121	0xbe7dd528	-0.24788344
122	0xbba21a8d	-0.0049470128
123	0xbc700ac0	-0.0146510005
124	0x3c109de4	0.008826707
125	0xbcace396	-0.021104615
126	0x3e96a1a0	0.29420185
127	0xbe6fc83c	-0.23416227
128	0x3cabceb9	0.020972596
129	0x3e3048ad	0.17215224
130	0xbc91a5db	-0.017779281
131	0x3c5b5797	0.013387582
132	0x3dfd7f0d	0.12377749
133	0xbd496778	-0.04917094
134	0x3ec52e56	0.38511914
135	0xbe7da29e	-0.24769065
136	0x3c4bc48a	0.012436995
137	0xbd068ef5	-0.03285118
138	0x3d2c738b	0.042102378
139	0xbd1ff43b	-0.039051276
140	0x3e318826	0.17337093
141	0x3dcef4c0	0.10105276
142	0x3c85f40e	0.016351726
143	0xbd241996	-0.040063463
144	0x3e0e1a8a	0.13877311
145	0xbea26e8e	-0.31724972
146	0xbd107799	-0.035270307
147	0xbe94b5d1	-0.29044965
148	0x3e0e9f8c	0.1392805
149	0x3d69f1e7	0.05711546
150	0xbc19c184	-0.009384517
151	0xbe90d22a	-0.28285342
152	0x3bd76c1f	0.0065741683
153	0x3d481c67	0.04885521
154	0xbcff7bd4	-0.031186976
155	0xbdd84b22	-0.105612054
156	0x398a7c01	0.000264138
157	0x3c9b51ec	0.018959962
158	0x3c802168	0.01564093
159	0x3e0c2da1	0.13689281
160	0xbe21a9ef	-0.15787481
161	0x3e0ef2c0	0.1395979
162	0xbeb3ec7a	-0.35141355
163	0xbd4472d7	-0.047961082
164	0x3d205747	0.039145734
165	0x3e4da1b9	0.20081224
166	0xbb9d2a97	-0.004796337
167	0xbf44225c	-0.7661493
168	0xbecff26a	-0.40614635
169	0x3dcb9110	0.09939778
170	0xbdd5b27e	-0.10434435
171	0xbc03cfe6	-0.008045172
172	0xbe8645e3	-0.26225194
173	0xbc1a8af0	-0.009432539
174	0x3eb2ee52	0.3494745
175	0x3ded14ea	0.11576255
176	0xbe098b45	-0.13432033
177	0x3a2a0e0c	0.00064870785
178	0xbe1605b0	-0.14650607
179	0x3ddd0f58	0.10793942
180	0x3e789721	0.24276401
181	0xbf098333	-0.5371582
182	0xbdf0e05f	-0.117615454
183	0xbde004f6	-0.10938446
184	0xbd8fc841	-0.07020617
185	0x3ca2528f	0.019814758
186	0xbe6ae6c9	-0.229396
187	0xbdecd5d5	-0.11564223
188	0x3c91df00	0.01780653
189	0x3bb868d8	0.0056277327
190	0x3d686201	0.05673409
191	0x3e0229cb	0.12711255
192	0xbeafb169	-0.3431504
193	0xba6a5f00	-0.00089405477
194	0xbf1da553	-0.6158039
195	0xbd1f3142	-0.038865335
196	0x3b36c7ce	0.002789009
197	0xbccf0de1	-0.025275173
198	0xb9cb3e71	-0.000387657
199	0xbf0aa9a4	-0.541651
200	0x3c2907d8	0.0103168115
201	0x3c996855	0.018726507
202	0xbca0a292	-0.01960877
203	0xbde17f36	-0.11010592
204	0xbc0880ca	-0.008331487
205	0xbb08460e	-0.002079371
206	0x3b2ffffd	0.0026855462
207	0xbaad3cff	-0.0013217031
208	0xbe088c1c	-0.13334697
209	0xbc90a6db	-0.017657688
210	0xbf18a299	-0.59623104
211	0xbb99deec	-0.004695764
212	0x3cae512a	0.021278936
213	0xbcfbbd32	-0.030729864
214	0xbfa33e61	-1.2753412
215	0xbfb9915f	-1.4497489
216	0xbcfdd53d	-0.030985469
217	0xba90b5b1	-0.0011040476
218	0xbc535cf8	-0.012900583
219	0x3d1aa4a7	0.03775468
220	0xbcb40c40	-0.021978498
221	0xbc8cb972	-0.017178271
222	0x3d05221c	0.032503232
223	0xbf17d851	-0.5931445
224	0xbedbb1c3	-0.4290906
225	0xbf8acf68	-1.0844545
226	0xbca578b8	-0.020199165
227	0xbbb26926	-0.0054446636
228	0xbdc363c6	-0.09540515
229	0xbe777fcb	-0.24169843
230	0xbd8c1dbd	-0.068416096
231	0xbca5fa0a	-0.02026083
232	0xbba62468	-0.005070258
233	0xbe80dcbf	-0.25168416
234	0xbeccfd0d	-0.40036812
235	0x3c13ce1f	0.009021311
236	0x3c820c95	0.01587514
237	0x3bbc7cde	0.00575219
238	0xbea02432	-0.31277615
239	0xbd8b9aac	-0.06816611
240	0xbf23ca6c	-0.63980746
241	0xbd1be346	-0.03805854
242	0xbc365f0e	-0.011131061
243	0x3c77a5d1	0.015115217
244	0xbb313669	-0.0027040488
245	0xbc57a59c	-0.013162043
246	0x3caa2349	0.020768778
247	0xbae13752	-0.0017182624
248	0xbe11a963	-0.14224772
249	0xbec39be5	-0.38204876
250	0xbe076790	-0.132231
251	0x3a8e3c05	0.0010851627
252	0x3c00da39	0.007864528
253	0x3db366f5	0.08759872
254	0xbd64e902	-0.055886276
255	0xbf28b050	-0.6589403

update_node_embedding_layer.0.update_layer.weight f4 [64, 128]
0	0x3bf2be5b	0.007407946
1	0xbfb65cac	-1.4247031
2	0x3aee4747	0.0018179201
3	0xbf399b7e	-0.7250289
4	0xbd8591c3	-0.065219425
5	0x3e0003dd	0.12501474
6	0x3e0cd74d	0.13754006
7	0xbf543423	-0.82892054
8	0xbbb96128	-0.005657334
9	0x3d8911c5	0.066928424
10	0xbf892e0c	-1.0717177
11	0xbf1b6155	-0.6069539
12	0xbf5014b2	-0.8128158
13	0xbf099d3b	-0.5375554
14	0x3e0f3bc7	0.13987647
15	0xbe17bddb	-0.14818518
16	0x3c4787d6	0.012178382
17	0xbcd6baa8	-0.026212052
18	0x3e439ffb	0.19103996
19	0xbeed49f4	-0.46345484
20	0xbe600e30	-0.21880412
21	0xbf839c8d	-1.028215
22	0x3bfe6cee	0.0077644503
23	0x3da5415e	0.080691084
24	0x3ea1976c	0.31560838
25	0xbf860c60	-1.0472527
26	0x3e9f89cb	0.31159815
27	0x3eab4e9c	0.33458412
28	0xbed6e873	-0.4197422
29	0xbd3791da	-0.04481683
30	0x3c964f50	0.018348366
31	0xbf3ca173	-0.7368385
32	0xbe41bd4f	-0.18919872
33	0xbeab22ab	-0.33424887
34	0xbf37bb60	-0.71770287
35	0xbf3a1852	-0.7269336
36	0x3dbed453	0.093178414
37	0x3e81700c	0.25280797
38	0x3de1c593	0.110240124
39	0xbf336e9a	-0.7009064
40	0xbe9374dc	-0.28800094
41	0xbf0f726b	-0.5603396
42	0x3c9af37e	0.018914934
43	0xbeccfde1	-0.40037444
44	0xbead89b9	-0.33894137
45	0xbdb4365b	-0.0879943
46	0x3e1b221d	0.15149732
47	0xbe176e52	-0.14788178
48	0xbf1669b4	-0.5875504
49	0x3b99905e	0.0046863994
50	0x3ecdbc1d	0.40182582
51	0xbe79febc	-0.2441358
52	0xbe5afb8d	-0.21385022
53	0xbf5d2fe4	-0.864012
54	0xbb7e4f8d	-0.003880474
55	0xbe41a93b	-0.18912213
56	0xbf7e6491	-0.993722
57	0xbc38bae1	-0.011275024
58	0xbf2a188d	-0.6644371
59	0x3e5b7311	0.21430613
60	0xbdee393a	-0.11632009
61	0xbb9a8dc2	-0.004716606
62	0x3e959c0c	0.29220617
63	0xbf962cdc	-1.173244
64	0x3e3afbbd	0.18260093
65	0x3e4822cc	0.19544524
66	0x3e1b4c25	0.15165766
67	0xbd9d8f5d	-0.0769336
68	0xbe9806b0	-0.29692602
69	0x3e9e8642	0.30961806
70	0x3e00d69c	0.12581867
71	0xbe89f56b	-0.26945052
72	0xbef35c83	-0.47531518
73	0x3e003a1a	0.12522164
74	0x3d255d32	0.04037208
75	0x3dcd0fae	0.10012756
76	0x3d3fa253	0.046785664
77	0xbefebce0	-0.49753475
78	0xbd0a3a86	-0.03374722
79	0x3cd526be	0.02601945
80	0xbe010880	-0.12600899
81	0x3ea3b5c4	0.31974614
82	0xbdeb8436	-0.114998266
83	0x3c984fef	0.018592803
84	0xbe1e515f	-0.15460728
85	0xbe4090ea	-0.1880528
86	0xbcbb544d	-0.022867346
87	0xbc53ab48	-0.012919255
88	0xbd671dc1	-0.05642486
89	0xbd3a42e0	-0.045473933
90	0x3c0e856f	0.008698805
91	0xbe4f4789	-0.20242132
92	0x3df6d593	0.12052455
93	0x3dc76edd	0.09737942
94	0xbd9e189c	-0.077195376
95	0x3e55cc91	0.20878817
96	0xbdbade90	-0.09124482
97	0xbd85621c	-0.065128535
98	0xbe2ef0bd	-0.17084022
99	0x3dc77d6c	0.09740719
100	0xbeb866ee	-0.3601603
101	0xbececa3b	-0.40388665
102	0x3cd45b5c	0.02592247
103	0xbe486b6a	-0.19572225
104	0xbe95b6b4	-0.29240954
105	0xbe062146	-0.1309863
106	0xbea6de23	-0.32591352
107	0xbc4c00c0	-0.012451351
108	0xbd8482ba	-0.064702466
109	0x3d914f95	0.07095257
110	0x3e883cff	0.26609036
111	0x3d8aa072	0.06768884
112	0xbdf871ed	-0.121311046
113	0x3df584d3	0.11988225
114	0xbe2fa27d	-0.17151828
115	0xbe920658	-0.28520465
116	0xbe3e8302	-0.18604663
117	0xbea56424	-0.32302964
118	0xbe981fe8	-0.29711843
119	0xbd90beba	-0.07067628
120	0x3d539151	0.051652256
121	0xbef48edc	-0.47765243
122	0xbddde775	-0.108351626
123	0xbd23bcad	-0.039974857
124	0xbe6bd263	-0.23029475
125	0xbe0642cb	-0.13111417
126	0x3be4420b	0.0069658807
127	0xbd1daaf0	-0.038493097
128	0xbdf41e19	-0.11919803
129	0xbe571298	-0.21003187
130	0xba191c77	-0.00058407284
131	0x3dc27440	0.09494829
132	0xbe5e8662	-0.2173095
133	0xbc2ca9e8	-0.010538556
134	0xbc5a49eb	-0.0133232875
135	0xbe8cbc66	-0.27487487
136	0xbbcd5baa	-0.0062670307
137	0xbec85df7	-0.3913419
138	0xbe91536b	-0.28383955
139	0xbed2efbf	-0.41198537
140	0xbe6964e4	-0.22792393
141	0xbe55b38c	-0.20869273
142	0x3d487f91	0.04894978
143	0x3e67ce2f	0.22637247
144	0xbec127a6	-0.37725562
145	0x3cb0784c	0.021541737
146	0xbeeee245	-0.46657005
147	0xbf4f5cf0	-0.81001186
148	0xbd2f5040	-0.04280114
149	0xbd82a81e	-0.06379722
150	0xbc190661	-0.0093399
151	0xbd77d3a8	-0.060504586
152	0xbd7f8479	-0.062382195
153	0x3d01df5c	0.031707153
154	0xbd551304	-0.052020088
155	0xbf0007f8	-0.5001216
156	0xbdcf8b95	-0.10134045
157	0xbe5bcf01	-0.21465684
158	0xbc354935	-0.011064817
159	0xbc53d332	-0.012928771
160	0x3db16d12	0.08663382
161	0xbe7cb140	-0.2467699
162	0x3d15ab6a	0.036540426
163	0x3d5ae415	0.053440172
164	0xbcbf563d	-0.023356551
165	0x3e2d74a2	0.16939023
166	0x3da0a82a	0.07844575
167	0xbe5cdffd	-0.2156982
168	0xbdf0ce88	-0.11758143
169	0xbe6ca51e	-0.23109862
170	0xbe6c5212	-0.23078182
171	0x3c6ea70a	0.014566192
172	0xbe4a9640	-0.19783878
173	0xbd0448d2	-0.03229601
174	0xbc8e0eff	-0.017341135
175	0xbd87eced	-0.06636987
176	0xbed1be1f	-0.40965363
177	0xbc9a6bca	-0.018850226
178	0x3cd15156	0.02555148
179	0xbe700c26	-0.23442134
180	0xbdfe2d03	-0.12410929
181	0xbda95a00	-0.08269119
182	0xbdf54304	-0.11975673
183	0xbdb801ab	-0.08984693
184	0xbe59d27b	-0.21271698
185	0xbc11cd4d	-0.008899045
186	0xbe6bf75b	-0.23043577
187	0xbd698d09	-0.057019267
188	0xbefe5f32	-0.49682003
189	0x3bb8aaca	0.005635594
190	0xbd339d50	-0.043851197
191	0xbf224608	-0.6338811
192	0xbd91205d	-0.07086251
193	0x3d8f79b1	0.07005633
194	0x3b85e934	0.004086638
195	0xbe910592	-0.28324562
196	0x3df0796e	0.11741911
197	0xbdf70c34	-0.120628744
198	0xbe1d28e8	-0.15347636
199	0x3c973049	0.018455641
200	0x3d99e1da	0.07513781
201	0xbdb48c8d	-0.088158704
202	0xbdbb15b6	-0.091350004
203	0x3e1fb856	0.15597662
204	0x3e1b09ee	0.15140507
205	0xbd1ada54	-0.03780587
206	0x3c245bd8	0.010031663
207	0xbdb531a5	-0.088473596
208	0x3e67ee74	0.22649556
209	0x3ded1bef	0.115775935
210	0xbe505b07	-0.20347224
211	0x3e196381	0.14979364
212	0xbe1a6998	-0.15079343
213	0x3bab8d05	0.0052353167
214	0x3de15f28	0.11004478
215	0xbd8fbad4	-0.070180565
216	0xbe2746fe	-0.16335675
217	0xbb0db673	-0.002162364
218	0x3e18cd62	0.14922097
219	0xbd67f582	-0.05663062
220	0x3dd9f5e1	0.10642601
221	0x3d97f9b8	0.07420677
222	0x3d8622c8	0.06549603
223	0xbe4709fe	-0.19437405
224	0x3d485389	0.04890779
225	0xbf0c1dc6	-0.5473293
226	0x3ec27c5b	0.379855
227	0xbc0446c6	-0.008073514
228	0xbe300494	-0.17189246
229	0x3d66f881	0.056389336
230	0xbe0cb1c7	-0.13739692
231	0xbdd76241	-0.10516787
232	0x3cce46d4	0.025180258
233	0x3e7b36f0	0.24532676
234	0x3d931fbd	0.07183788
235	0xbda0560d	-0.07828913
236	0xbea47106	-0.3211748
237	0xbcb7194f	-0.022350935
238	0xbdfd0d07	-0.123560004
239	0xbdad6761	-0.084669836
240	0x3d84aa41	0.06477786
241	0xbdf1afb2	-0.11801089
242	0x3e7b9407	0.24568187
243	0x3e06df35	0.13171084
244	0x3caf0eb2	0.021369312
245	0x3de6988d	0.112595655
246	0x3e12ad26	0.14323863
247	0x3b175f9e	0.0023097764
248	0xbde34f36	-0.11099093
249	0x3e76b100	0.24090958
250	0xbe7f4fd5	-0.24932797
251	0x3d52bdbd	0.05145048
252	0xbe263f71	-0.16235138
253	0xbe10fb8d	-0.14158459
254	0xbea2685e	-0.3172025
255	0xbea0ed2e	-0.31430954

update_node_embedding_layer.1.message_layer.weight f4 [64, 128]
0	0x3bbe2820	0.005803123
1	0xbba43891	-0.005011626
2	0x3ca7ff2a	0.020507414
3	0xba75d228	-0.0009377324
4	0xbc72e8e7	-0.014826036
5	0xbbb3552e	-0.0054728007
6	0x3cefc763	0.02926988
7	0xbd18faa3	-0.0373484
8	0xbc6549df	-0.013994663
9	0xbc84d495	-0.016214648
10	0x3c4997bf	0.0123042455
11	0xbccc4d33	-0.024939155
12	0x3b37e9d2	0.0028062952
13	0x3d174dd8	0.036939472
14	0xbbc67f98	-0.006057691
15	0x3b0dde1e	0.0021647285
16	0xbb309430	-0.0026943795
17	0x3c42ab29	0.011881628
18	0x3b9c1600	0.004763365
19	0x3caabc99	0.020841883
20	0x3b214abe	0.00246112
21	0xbd207cf9	-0.039181683
22	0x3d12f653	0.035879444
23	0x3cac672b	0.021045288
24	0xbd0aeaa5	-0.03391518
25	0xbb3c6965	-0.0028749343
26	0xbd42eaa5	-0.047587056
27	0x3b1c4d41	0.0023849758
28	0x3c394234	0.011307288
29	0x3caea0cd	0.02131691
30	0x3c510e94	0.012759823
31	0x3b64d26c	0.003491546
32	0xbc82e002	-0.015975956
33	0xbd07adac	-0.03312461
34	0x3cf02f23	0.029319352
35	0x3c3bf641	0.011472286
36	0xbc4d9dd9	-0.012549841
37	0x3c40d046	0.011768406
38	0xbb50a971	-0.0031839276
39	0x395d71fb	0.00021118663
40	0xbc0faf9a	-0.008769894
41	0xbc329fff	-0.010902404
42	0xbce1a311	-0.027543576
43	0xb9e4bbbd	-0.00043627425
44	0x3d274ffc	0.040847763
45	0x3cccf853	0.025020754
46	0x3c660696	0.014039656
47	0xbb3bdeeb	-0.0028666805
48	0xbcd7e2da	-0.026353288
49	0xbaa21b86	-0.0012367822
50	0x3c669bb9	0.014075213
51	0xbc51fd17	-0.012816689
52	0x3c1dbabf	0.009627043
53	0x3c62ad1f	0.013835221
54	0xbc1bf6e6	-0.009519314
55	0xbd87cad2	-0.06630482
56	0xbc9b2f62	-0.018943492
57	0x3cdce34e	0.026963856
58	0xbb919655	-0.00444297
59	0xbc47ff4d	-0.012206865
60	0x3c963b21	0.018338742
61	0xbbd0e182	-0.006374539
62	0x3baafc24	0.005218046
63	0x3c7ea133	0.015541363
64	0xbdd7eea0	-0.10543561
65	0xb969d563	-0.00022300104
66	0xbcc805d0	-0.024416834
67	0xbc8e0033	-0.01733408
68	0xbb1384ca	-0.0022509568
69	0x3b12c7ae	0.002239685
70	0x3b3007f1	0.0026860202
71	0xbd7121f7	-0.058870282
72	0xbc9e9473	-0.019357895
73	0xbc87f634	-0.016596891
74	0x3b3a7014	0.0028448151
75	0xbaa96bfe	-0.0012925861
76	0x3bb2dffd	0.0054588304
77	0x3bfbb327	0.0076812687
78	0x3bb86b41	0.00562802
79	0xbab960dc	-0.0014143246
80	0xbcc493d8	-0.023996279
81	0xbba3babd	-0.004996626
82	0xbdbe1310	-0.0928098
83	0x3c355a60	0.01106891
84	0xb98c781b	-0.00026792366
85	0xbb411e2d	-0.002946745
86	0xbe4fcd90	-0.2029326
87	0xbdb848ad	-0.08998237
88	0x3bdc0409	0.006714348
89	0xbcb369cf	-0.02190104
90	0xbcd75202	-0.026284222
91	0x3b9886a2	0.0046547214
92	0x3c1a2b26	0.009409701
93	0x3b0fbebe	0.002193376
94	0xb8ed4479	-0.00011313795
95	0xbd41ab35	-0.047282416
96	0xbc3adc58	-0.011405073
97	0xbe2ff018	-0.17181432
98	0xbd01fc60	-0.031734824
99	0xbdd2b0e6	-0.10287647
100	0xbccef286	-0.025262129
101	0xbd1e53a3	-0.03865398
102	0xbdada65a	-0.08478995
103	0xbc238c9d	-0.009982255
104	0xbb79a03b	-0.003808989
105	0xbdd9d0e2	-0.10635544
106	0xbd44d01b	-0.048050027
107	0x3a5b9a80	0.00083772093
108	0x3c012f1e	0.007884769
109	0x3b42ee2e	0.0029744017
110	0xbd68cbfe	-0.056835167
111	0xbcdcb73c	-0.026942842
112	0xbd41610b	-0.047211688
113	0xbcdfe53d	-0.027330989
114	0xbb867a91	-0.0041039665
115	0x3b52d68a	0.0032171332
116	0xba1cca57	-0.0005981079
117	0xbc03f72b	-0.008054535
118	0xbc90fbd0	-0.017698199
119	0x3b776f26	0.0037755459
120	0xbc8534c2	-0.016260508
121	0xbd4c1198	-0.049821466
122	0xbce0d691	-0.027446063
123	0xbcd30424	-0.02575881
124	0xb737b6e0	-1.0950229e-05
125	0xbd218f97	-0.03944358
126	0xbd0e7092	-0.034775324
127	0xbcd66b7a	-0.026174296
128	0xbaf48b04	-0.0018657153
129	0x3e1e1265	0.15436704
130	0x3c3302d0	0.0109259635
131	0xbd1e24cc	-0.03860931
132	0x3c9e01a6	0.019287895
133	0x3dbdcfc4	0.09268144
134	0x3b67a2b4	0.0035344781
135	0xbcb7022c	-0.022339903
136	0xbc88a588	-0.016680494
137	0x3d01ed7f	0.031720635
138	0xbd0fa2fd	-0.035067547
139	0xbd1d67cc	-0.038429067
140	0xbc1c2d75	-0.009532322
141	0x3cf03206	0.029320728
142	0x3cdb9279	0.026803242
143	0x3bcc5381	0.0062355404
144	0x3c831d32	0.016005132
145	0x3d106aa5	0.035257954
146	0x3c93d22a	0.01804455
147	0x3d1824eb	0.037144583
148	0x3da53a2a	0.080677345
149	0x3c541a8e	0.012945784
150	0xbd15f190	-0.036607325
151	0xbdd95a3c	-0.10612914
152	0xbde41937	-0.11137622
153	0xbd640fa2	-0.05567897
154	0xbd100656	-0.035162292
155	0xbc583fa3	-0.013198766
156	0x3dbebb00	0.09313011
157	0xbbcf29a5	-0.006322103
158	0xbb1ca26c	-0.0023900522
159	0x3be164ef	0.0068784873
160	0xbd152081	-0.03640795
161	0x3ab9af33	0.0014166593
162	0x3d73cb49	0.05952004
163	0x3c1ae783	0.009454611
164	0x3be3d533	0.0069529056
165	0x3d649b6d	0.055812288
166	0xbd8e1fd5	-0.06939665
167	0x3cc1c1df	0.023652015
168	0x38bebfeb	9.0956535e-05
169	0xbb6602fa	-0.003509699
170	0x3d5f165a	0.054464675
171	0xbca0ab0f	-0.019612817
172	0xbc99a7d0	-0.018756777
173	0xbcac62b7	-0.021043165
174	0x3db00062	0.08593823
175	0xbac9236b	-0.0015345638
176	0x3a93e92c	0.0011284701
177	0x3bda7836	0.0066671623
178	0xbafeb02b	-0.0019431164
179	0x3b5aadea	0.003336782
180	0x3ca80bda	0.020513464
181	0x3d3e7a83	0.046503555
182	0xbac5395a	-0.0015046999
183	0x3d0100e7	0.031495
184	0x3c12b262	0.008953663
185	0x3d9c6c8e	0.07637893
186	0xbc73a6f5	-0.014871349
187	0x3c4a7b31	0.012358473
188	0x3d4dfd8c	0.05029063
189	0xb9f80f23	-0.00047313524
190	0xbcbc6bb6	-0.02300058
191	0xbb952a91	-0.0045521935
192	0xbe859e64	-0.26097405
193	0x3c4fb1d2	0.012676673
194	0xbd5f99de	-0.0545901
195	0xbbe1b167	-0.006887603
196	0x3c81ab0f	0.015828637
197	0x3b734093	0.0037117347
198	0x3bba5ff9	0.0056877104
199	0xbe81d0d3	-0.25354633
200	0xbd01a036	-0.03164693
201	0xbc041583	-0.008061769
202	0xba00c0a4	-0.0004911518
203	0xbe0e3a64	-0.13889462
204	0xba0238cc	-0.000496757
205	0xbae8398e	-0.0017717348
206	0x3c2b1ae1	0.01044342
207	0x3c83ca0a	0.01608755
208	0xbcfb4819	-0.030674027
209	0xbc009583	-0.007848146
210	0xbe7a0510	-0.24415994
211	0x3c6708c7	0.014101214
212	0x3c4eb30f	0.012615933
213	0xba40d3f3	-0.00073558016
214	0xbe4c1b6e	-0.19932339
215	0xbe97844d	-0.29593125
216	0x38af1ffe	8.350609e-05
217	0xbcbecc9e	-0.023290928
218	0x3ab958d3	0.0014140852
219	0x3c23de58	0.010001741
220	0xbb104f7d	-0.0022020035
221	0xbcda1fec	-0.02662655
222	0x3c050d71	0.00812088
223	0xbe11989d	-0.14218374
224	0xbbe459d3	-0.0069687157
225	0xbee26a90	-0.44221926
226	0x3cfa377f	0.03054404
227	0xbe12f457	-0.14351021
228	0xbda625b1	-0.08112658
229	0xbe18e57c	-0.14931291
230	0xbd6d6898	-0.057961076
231	0xbc9eee8d	-0.01940086
232	0xbcc0bced	-0.023527587
233	0xbec9e79d	-0.3943452
234	0xbcbe6027	-0.023239208
235	0xbd1410a5	-0.036148686
236	0xbbf0c0fd	-0.0073472247
237	0x3bc1d102	0.0059148083
238	0xbda3ab31	-0.079916365
239	0x3dda2fdb	0.10653659
240	0xbe6db0be	-0.23211953
241	0xbd612215	-0.054964144
242	0xbc3c843e	-0.011506138
243	0x3c2c7910	0.01052691
244	0x3c245815	0.010030766
245	0xbc28ec22	-0.010310205
246	0xbbc2ff19	-0.00595082
247	0xbb3d8cfd	-0.0028923147
248	0x3d0bb716	0.03411015
249	0xbe710617	-0.2353748
250	0xbcadbc35	-0.021207908
251	0x398f3890	0.00027317228
252	0x3bfc1380	0.0076927543
253	0xbd87f105	-0.06637768
254	0x3d14d6a3	0.036337506
255	0xbde5d32a	-0.11221917

update_node_embedding_layer.1.update_layer.weight f4 [64, 128]
0	0xbe05142c	-0.12995976
1	0xbe01ee12	-0.12688473
2	0x3ec71b06	0.38887805
3	0x3f2fcb8d	0.6866997
4	0x3f708c54	0.93964124
5	0xbd297a14	-0.04137619
6	0xbf158723	-0.5840933
7	0xbdf188a1	-0.11793638
8	0xbe514c01	-0.2043915
9	0x3f2dba45	0.6786235
10	0x3e8d99a4	0.2765628
11	0xbdc5a491	-0.09650529
12	0xbdf22c47	-0.118248515
13	0x3f26b3c3	0.65118045
14	0xbff2b869	-1.8962528
15	0xbe01026c	-0.1259858
16	0x3ab29b8e	0.0013626681
17	0x3c9146a1	0.017733874
18	0x3e638355	0.22218068
19	0xbf898650	-1.0744114
20	0xbfe2d4ec	-1.7721229
21	0x3e136399	0.14393462
22	0x3e0c5a76	0.13706383
23	0x3f36578f	0.71227354
24	0x3ebc2a15	0.36750856
25	0xbed49949	-0.41523197
26	0xbe969d62	-0.2941695
27	0xbc675112	-0.01411845
28	0xbbedfe80	-0.007263005
29	0xba820b06	-0.0009921498
30	0x3f700a48	0.9376569
31	0xbf1dc781	-0.61632544
32	0xbf765604	-0.96225
33	0x3efb3b86	0.4906885
34	0xbdee8496	-0.116463825
35	0x3dea77a2	0.114485994
36	0xbdd2035e	-0.102545485
37	0xbf4df27e	-0.8044814
38	0xbe3ac5a8	-0.18239462
39	0x3d7a074e	0.061042123
40	0x3e8d3d52	0.27585846
41	0xbbfa8323	-0.0076450272
42	0xbf10763f	-0.5643043
43	0x3b63a563	0.003473603
44	0xbf6d2958	-0.9264121
45	0xbdb06c9c	-0.086144656
46	0x3d134245	0.03595187
47	0xbd09f2ed	-0.033678938
48	0xbd753f85	-0.05987503
49	0xb8b71802	-8.730592e-05
50	0x3e43c7cb	0.19119184
51	0x3e71304c	0.2355358
52	0x3cfde739	0.030994045
53	0x3d9e44c9	0.077279635
54	0x3e9a89c7	0.3018324
55	0xbd8b6296	-0.06805913
56	0x3f776acc	0.96647334
57	0x3d09574d	0.033530522
58	0xbf4d31a8	-0.80153894
59	0xbc372493	-0.011178154
60	0x3ea15ed8	0.31517673
61	0xbedebe1b	-0.43504414
62	0xbefb0bd7	-0.4903247
63	0xbe6df499	-0.23237838
64	0xbd449cd7	-0.048001137
65	0x3e5eacb6	0.21745571
66	0xbf1af72c	-0.60533404
67	0xbec6fb86	-0.38863772
68	0x3d88355a	0.06650801
69	0x3eb2b28b	0.34901842
70	0x3f14ce3c	0.5812719
71	0xbe358744	-0.17727381
72	0x3d5b61a1	0.053559903
73	0xbabc2ba7	-0.0014356271
74	0xbbe11899	-0.0068693873
75	0xbfa17789	-1.2614604
76	0x3e05e5a4	0.13075882
77	0xbdadde99	-0.08489723
78	0xbe0fbb78	-0.14036357
79	0x3d1d6cd0	0.03843385
80	0xbc5f09fc	-0.01361322
81	0xbb9c350e	-0.004767067
82	0x3e8bdd34	0.27317202
83	0x3c2a9ffe	0.010414122
84	0xbdd73ff7	-0.10510247
85	0xbe8b97a1	-0.2726412
86	0xbc8f2b05	-0.017476568
87	0x3e8b8a4f	0.2725396
88	0x3f0e0b3c	0.5548589
89	0x3dbc3d91	0.0919143
90	0xbf14c00f	-0.5810556
91	0x3e82bfde	0.25537008
92	0x3e6637e7	0.22482263
93	0x3c1e9fcb	0.009681652
94	0xbdfdea42	-0.12398197
95	0x3e089744	0.13338953
96	0xbefe51ef	-0.49671885
97	0xbedaef6c	-0.4276079
98	0xbbc3dfe1	-0.005977616
99	0x3c903cbc	0.017607085
100	0xbd626a79	-0.05527732
101	0xbaf3b671	-0.00185938
102	0x3e817d69	0.25290993
103	0xbccb9d53	-0.024855291
104	0xbe8967a8	-0.26836896
105	0x3f409411	0.7522593
106	0xbe2b2152	-0.1671193
107	0xbd6290f6	-0.055314027
108	0xbbe9f9d1	-0.007140376
109	0x3f2caf1e	0.6745471
110	0x3ec56a18	0.38557506
111	0x3ea21940	0.3165989
112	0xbe64d710	-0.22347665
113	0x3bf2aa3e	0.0074055484
114	0x3ddcbf45	0.10778669
115	0x3d506f97	0.05088767
116	0x3e40644c	0.1878826
117	0xbd85cabd	-0.0653281
118	0xbe129eb3	-0.14318351
119	0xbe297bac	-0.16551083
120	0xbcf6811d	-0.030090863
121	0x3e52d959	0.20590724
122	0x3d6d4ee6	0.05793657
123	0xbe4264fd	-0.18983836
124	0x3dbdc37d	0.09265802
125	0xbca0adee	-0.019614186
126	0x3dd95462	0.10611798
127	0xbe9a149c	-0.3009385
128	0x3bfcd880	0.0077162385
129	0x3ac995cc	0.0015379726
130	0xbc3bc80e	-0.011461271
131	0xbcc23fe6	-0.02371211
132	0xbc97326a	-0.018456656
133	0xbc80ec27	-0.015737606
134	0x3bd1fc9c	0.006408287
135	0xbd24818e	-0.040162615
136	0x3b0be552	0.0021346402
137	0xbbe7b766	-0.0070714233
138	0xbcb35bb7	-0.021894319
139	0xbd90014d	-0.07031498
140	0xbbcf0fc7	-0.0063190195
141	0xbc87c695	-0.016574183
142	0xbbecb38d	-0.0072235526
143	0x3c3e20af	0.011604472
144	0x3c94b88f	0.01815441
145	0xbb765a5b	-0.0037590477
146	0xbd0b9b29	-0.03408352
147	0xbd598958	-0.053109497
148	0xbb1e2cb3	-0.002413553
149	0xbc6ed3ed	-0.014576894
150	0xbd029d10	-0.031888068
151	0x3c196bec	0.0093641095
152	0xbd2f31d8	-0.042772144
153	0xbc8e596c	-0.017376624
154	0xbc9cb1b3	-0.019127702
155	0x3b8f4280	0.004371941
156	0xbc8a7ef5	-0.016906241
157	0xbc48f452	-0.012265282
158	0x3b011048	0.0019693542
159	0xbc3d7856	-0.011564335
160	0xbd3d24e1	-0.04617775
161	0xbb3990d1	-0.0028315077
162	0x3c612d15	0.013743659
163	0xbc6b70d5	-0.014370163
164	0xbbf5c9eb	-0.007500877
165	0xbcc0e5f2	-0.023547146
166	0x3c0808d8	0.00830289
167	0xbc6afd6e	-0.014342649
168	0xbd858155	-0.06518809
169	0xbc61004a	-0.013732979
170	0xbce9f134	-0.028557397
171	0xbcfad95f	-0.030621229
172	0xbc21f6ff	-0.009885549
173	0xbdd795ff	-0.10526656
174	0xbbe450bd	-0.0069676326
175	0xbb9362e7	-0.004497874
176	0x3b3d4bca	0.0028884285
177	0x3c81678f	0.01579645
178	0x3ca1f27d	0.019768948
179	0x3c19717b	0.009365435
180	0xbd0a1732	-0.033713527
181	0xbc2637fe	-0.0101451855
182	0xbc91dad4	-0.01780454
183	0xbd4fd1a9	-0.050737057
184	0xbc2a5c47	-0.010397977
185	0xbd13692a	-0.035988964
186	0xbc5404ff	-0.012940644
187	0xbc118922	-0.008882793
188	0xbbe26211	-0.006908663
189	0xbcb83793	-0.022487437
190	0xbcbcb92c	-0.023037516
191	0xbb388fa3	-0.0028161786
192	0x3c14626e	0.009056671
193	0xbc074b5b	-0.008257712
194	0xbb8dcd28	-0.004327435
195	0xbcbb5a31	-0.022870155
196	0xbd008bc0	-0.031383276
197	0xbc6dcfb3	-0.014514851
198	0xbb5f0010	-0.0034027137
199	0xbc902bb1	-0.017598959
200	0x3c11e4e0	0.008904666
201	0xbc3f5abd	-0.011679349
202	0xbd05a879	-0.03263137
203	0xbcd7f403	-0.026361471
204	0xbc09c086	-0.008407718
205	0xbcc178fe	-0.023617264
206	0xbc392ca5	-0.011302148
207	0xbd090133	-0.03344841
208	0xbc8796ed	-0.01655146
209	0xbd0add1e	-0.03390228
210	0x3af47b39	0.0018652446
211	0xbb9a0fc8	-0.0047015883
212	0xbc306a2b	-0.0107675
213	0xbd067cc3	-0.032833826
214	0xbce43ddd	-0.02786153
215	0xbc1ce777	-0.00957667
216	0xbc3654d5	-0.011128624
217	0xbc7036b6	-0.014661482
218	0xbb5dba1f	-0.003383286
219	0xbc00765d	-0.00784072
220	0xbcc4a059	-0.024002241
221	0x3afb743d	0.0019184422
222	0x3cb2e745	0.021838794
223	0xbd13aecd	-0.036055375
224	0xbc6d573f	-0.014486133
225	0xbcfe0784	-0.031009443
226	0x3c28edc9	0.010310599
227	0xbc1f2f45	-0.00971586
228	0x3b9bfbd4	0.004760245
229	0xbcb20cb6	-0.021734577
230	0xbbeae137	-0.007167961
231	0xbb8b496e	-0.004250697
232	0xbd1b7ca5	-0.037960667
233	0xbd40a07a	-0.047028042
234	0xbd83330a	-0.06406219
235	0xbb6d9560	-0.0036252365
236	0xbc63e5ad	-0.013909739
237	0xbc872285	-0.016495952
238	0xbc9fb3ef	-0.019494979
239	0xbbbc0b92	-0.005738684
240	0xbc772af2	-0.015085923
241	0xbb0d152d	-0.0021527514
242	0x3b05d489	0.002042087
243	0xbd5265d7	-0.051366653
244	0xbc89e90c	-0.016834758
245	0xbc094a40	-0.008379519
246	0xbb7c1e56	-0.003847023
247	0xbd18b7a8	-0.037284523
248	0xbc4fae62	-0.012675853
249	0xbb19961f	-0.0023435426
250	0xbcb32a7b	-0.021870842
251	0xbbd5c84c	-0.0065241214
252	0xbbae3d2d	-0.0053173513
253	0x3c50a633	0.0127349375
254	0xbd8ac85b	-0.06776496
255	0xbc9ba583	-0.01899982
