rlsolver/methods/eco_s2v/pretrained_agent/s2v_BA_20spin_best.pth (torch, 236338 bytes, 11 tensors)

node_init_embedding_layer.0.weight f4 [64, 1]
000000 a2 20 31 3c 05 4f d9 bb a7 9a 3b bb f8 31 89 39
       0.010811003 -0.0066317343 -0.0028626116 0.00026167906
000010 a2 d6 b9 bb 2d b6 0e 3c 05 d6 5e bc dd b2 5e bc
       -0.005671338 0.008710426 -0.013600831 -0.013592449
000020 85 74 0b 3c 75 a5 fd bb ce ed 32 3c e8 fc 84 3c
       0.008511667 -0.0077406713 0.010920955 0.016233876
000030 2e aa 2b 3c f0 44 1f 3c 5c 13 2d bc 59 cf 8f 3b
       0.010477586 0.009721026 -0.010563698 0.0043887314
000040 ab 81 38 3c 8e 0d 67 ba a0 86 da 3b e6 35 e1 bb
       0.011261384 -0.00088139705 0.0066688806 -0.0068728803
000050 6c fa 5e bc 0f ec 64 bb 9a b4 2c 3a b0 10 de 3b
       -0.01360951 -0.003493074 0.0006588191 0.0067768916
000060 eb 93 88 bb fd 6f 71 bb a2 f3 c7 bb fa 37 5f 3c
       -0.004168024 -0.0036840432 -0.0061020413 0.013624186
000070 61 3e be 3b 91 69 24 3c c5 32 da 3b de 67 4b bc
       0.005805776 0.010034935 0.006658884 -0.012414901
000080 2e b3 22 bc eb 0b 97 3c d6 02 72 3b e4 19 c4 bb
       -0.009930415 0.0184383 0.003692796 -0.0059845317
000090 03 b3 2a 3c 77 84 01 bb 26 d7 a5 3a 33 5d c3 ba
       0.010418656 -0.0019762793 0.001265262 -0.0014905095
0000a0 c6 e0 fb 3b f8 54 91 bc b2 94 31 bb 4d a0 a6 bb
       0.007686707 -0.017740712 -0.0027096686 -0.0050850273
0000b0 48 4b a8 3b 36 e6 5e 3c 4e 35 a2 bb b1 15 8a 3c
       0.0051359273 0.013604691 -0.004950202 0.016856046
0000c0 c6 d2 11 bd 58 90 53 bc e0 38 e5 3b 41 db b7 bc
       -0.0356014 -0.012912832 0.0069953054 -0.022443416
0000d0 dc 75 a1 ba e6 45 4f bc 8f 90 81 ba e7 1f 93 bc
       -0.001231845 -0.012650942 -0.0009885001 -0.017959548
0000e0 af 1e 06 3c 12 bf 19 bc eb 0b 74 bc a4 ca 3e bc
       0.0081860265 -0.009383934 -0.01489542 -0.011644993
0000f0 79 79 d3 bb 03 98 90 3b da a3 01 3c 4f ed bb bb
       -0.0064536897 0.0044126525 0.0079126 -0.0057350765

edge_embedding_layer.edge_embedding_NN.weight f4 [63, 2]
000000 33 fd 25 3c 77 9d ef 39 ef 33 ba ba 90 49 94 bc
       0.010131168 0.00045702953 -0.0014206151 -0.018101484
000010 56 cf 4d bc 0d 40 92 3c 87 48 0d 39 80 54 fc bb
       -0.01256164 0.017852807 0.00013473826 -0.007700503
000020 63 df 9e b9 00 d4 17 bb 9a c0 c5 bb 14 66 c7 3b
       -0.00030302544 -0.0023167133 -0.006034923 0.0060851667
000030 4c c4 7e 3c 0f 2d 16 3c 4a 59 6b 3c b5 05 df 3b
       0.0155497305 0.009166016 0.01436455 0.0068061003
000040 a3 60 75 bb ac eb 82 bc 3a 9a cc 3b 5a af 5e 3c
       -0.0037441633 -0.015981518 0.006243971 0.013591612
000050 82 ec f3 bb 7e 71 82 3a 2f 78 dd 39 a6 73 81 3c
       -0.0074439654 0.0009952036 0.00042241949 0.015802216
000060 7a 51 61 3b 2e ce 22 3c 8d d4 b0 3b 21 c9 b6 bc
       0.003438084 0.009936852 0.005396432 -0.022312703
000070 39 dd 70 3b 88 07 b8 3c e8 2c 47 3c a4 5c 13 3b
       0.0036752953 0.022464529 0.012156703 0.0022485638
000080 fc b3 45 bb 68 c0 13 bc 7b 2c 2f 3c 84 6b dc bb
       -0.0030167094 -0.009018041 0.010691757 -0.006726684
000090 2c 63 98 3b d8 dc b8 3c 78 d4 0e 3c 82 78 a5 3c
       0.004650494 0.022566244 0.008717649 0.020199064
0000a0 4f c9 18 bc 2b 95 6a bb d5 7e 9d b9 4d c7 d4 3b
       -0.009325339 -0.0035794477 -0.0003003987 0.006493485
0000b0 9d 96 87 ba 94 ff 42 3c 27 98 9a ba c7 44 41 bc
       -0.0010344569 0.011901755 -0.0011794613 -0.011796183
0000c0 41 64 96 bc 74 92 1b 3c e8 94 2b bc 65 d3 89 bc
       -0.018358352 0.009495366 -0.010472514 -0.016824434
0000d0 b8 43 1f bb a2 62 4c bc d5 d6 83 3b 1b 30 60 3b
       -0.0024301838 -0.012474688 0.0040234127 0.003420836
0000e0 c6 b8 8f 3c 9f 00 15 bb db b4 b3 b9 e7 16 62 bc
       0.017544162 -0.0022735966 -0.00034276288 -0.013799406
0000f0 f7 35 22 3c 92 85 e6 bb 0d 99 01 bc ba a6 fe 3b
       0.0099005615 -0.007034966 -0.007910025 0.00777134
000100 c8 81 a6 3b 10 74 15 bc 52 c0 80 bb cd cf c6 bb
       0.005081389 -0.00912191 -0.0039291764 -0.0060672523
000110 cf 37 71 3c 18 79 58 bc 89 1f bd ba cd 88 92 bc
       0.014722778 -0.013212465 -0.0014428954 -0.017887497
000120 92 b2 cc 3b f2 e8 55 bb 5e ef 39 bb 41 2d 45 bb
       0.006246873 -0.0032640067 -0.0028371434 -0.0030086788
000130 7b ac c9 bb 87 2e 25 bc bb 48 d8 39 9c 4e 27 3b
       -0.0061545945 -0.010081894 0.0004125292 0.0025529033
000140 9b bb b8 3a 16 0f 1c bc 1e ec d6 bb 6c 99 90 3c
       0.0014093997 -0.009525081 -0.006558909 0.017651282
000150 e2 7e 4f 3b c3 e6 bb 3b 5a 04 11 bc d6 69 87 bc
       0.0031661321 0.005734296 -0.008851135 -0.016529959
000160 e7 5f ed 3a 50 05 5a 3c 39 9d b1 3b 42 a0 b2 bb
       0.0018110246 0.013306931 0.0054203537 -0.005451233
000170 c4 77 1f 38 15 0b 20 3c e3 7a 1d bc be 22 53 3c
       3.8020095e-05 0.009768267 -0.009611818 0.012886701
000180 0e f3 12 3c f6 7a b3 3b fa b6 dc 3a d1 bc 8c ba
       0.008969082 0.0054773046 0.0016839199 -0.0010737424
000190 44 0e 6e 3b 9f 57 89 3b 17 e6 29 3a 56 e0 9d 3b
       0.003632442 0.0041913535 0.00064811244 0.0048180027
0001a0 da 11 0a bc 84 68 f7 3c 0e 6c da 3a 3c 0d 2d 3b
       -0.008427108 0.030201204 0.0016664283 0.0026405593
0001b0 87 35 5a 3c 69 35 bc ba 32 ed 21 bc fc a6 b5 bb
       0.013318426 -0.0014359179 -0.009883212 -0.0055435877
0001c0 0f 52 90 3b 0b 78 20 bb 75 6a 62 bc 4c dc 49 3c
       0.0044043134 -0.0024485614 -0.013819327 0.012320589
0001d0 fe 58 9f bc 38 c1 ab 3b 42 28 0a bc e7 b4 d6 3b
       -0.019451614 0.0052415393 -0.00843245 0.006552327
0001e0 dc 93 37 3a 69 e1 a5 bb d8 24 03 bc 79 a8 db bb
       0.0007002929 -0.0050622714 -0.00800439 -0.006703433
0001f0 f8 fe ce 3c 45 e2 f5 3b
       0.025268063 0.00750378

edge_embedding_layer.edge_feature_NN.weight f4 [64, 64]
000000 3b f7 9b bb cf 4f e7 37 36 f8 55 bc 3b f1 0d 3b
       -0.004759697 2.757451e-05 -0.013059666 0.0021658677
000010 39 ff e1 3b ae 96 14 bc 48 f6 cc bb 93 5a 37 3c
       0.00689688 -0.009069128 -0.006254945 0.011191028
000020 16 eb 25 bb 4e 13 81 bb 8c 53 10 3c fb c8 87 3c
       -0.0025317124 -0.003939069 0.008808982 0.016575327
000030 e1 f3 2e bc 32 3b a1 ba 8d 74 32 bc fb 5d 5c 3b
       -0.010678262 -0.0012300967 -0.010892046 0.0033625353
000040 0a 7a 31 bc 20 76 17 3c 20 67 5d 3c 0a c0 47 bb
       -0.010832319 0.009244472 0.013513356 -0.0030479454
000050 30 60 2e bb 92 3f 09 bc c4 24 09 b9 e5 19 e5 3b
       -0.0026607625 -0.008376973 -0.00013079034 0.0069916123
000060 f5 bd 5d b9 a4 67 20 bc b5 a5 bc 3b 2f 0c 42 3c
       -0.00021146967 -0.009790335 0.0057570585 0.011843725
000070 c5 ae 0d ba ed 4a 34 bc 2c 8f 80 bc 13 bd 9c bc
       -0.0005404766 -0.011004192 -0.01569327 -0.019133126
000080 60 ba 20 bc 29 be 34 bc bd f3 e3 bb 2f 2a e5 bb
       -0.00981006 -0.011031666 -0.006956546 -0.006993554
000090 a2 e0 79 3a 8d 3e ba 3b aa 9f 32 bc 20 49 cf 3b
       0.0009532069 0.005683726 -0.010902325 0.006325856
0000a0 f7 eb e2 3b d4 7e 82 bb e8 4b b6 ba 81 6a 3c 3b
       0.006925102 -0.0039824042 -0.001390812 0.0028750005
0000b0 fd d1 a4 bb 49 47 ea bb 43 84 a8 3b 1b 9f 99 3b
       -0.0050299154 -0.007149611 0.00514272 0.0046881563
0000c0 da 19 04 3c 11 5f 11 bb 1b 1d fb 3b 5f f6 bf 3b
       0.008062804 -0.0022181908 0.0076633818 0.005858227
0000d0 f3 aa 6c 3c 78 28 df 38 54 0e a0 39 36 cd a6 3c
       0.014445054 0.000106410065 0.00030528253 0.020361524
0000e0 42 19 e6 bb 34 74 91 3b e1 dd 8d 3b 19 e4 8b 39
       -0.007022054 0.0044389013 0.0043294285 0.00026682092
0000f0 49 ba 42 3c d8 44 1f 3c 4e 58 fe 3b 4d f2 b4 bb
       0.011885234 0.0097210035 0.0077619916 -0.0055220486
000100 e8 c2 99 3b 61 ed bc 3b 33 35 42 bb b1 a0 90 3b
       0.004692424 0.0057656025 -0.002963376 0.004413687
000110 ef b8 20 3c d4 6d 47 bc b0 5a 2d 3c 37 3d 61 3c
       0.009809717 -0.012172181 0.010580704 0.013747505
000120 4b 37 de 3b f2 87 5f 3c 11 c6 03 3c 3d 98 c6 3a
       0.006781494 0.013643252 0.008042828 0.0015151572
000130 60 e0 16 bc aa 62 42 39 a8 6e 74 3c bb c5 81 3a
       -0.009208769 0.00018538037 0.014918961 0.0009900847
000140 7b 35 c3 3b d3 3f 6b 3a 57 f6 72 3c ef 92 2e 3c
       0.005957303 0.0008974049 0.01482924 0.010655149
000150 f4 f2 8d 3b e9 63 1f bc fe 56 c6 3b 0e a0 26 bb
       0.004331941 -0.00972841 0.0060528507 -0.002542499
000160 97 36 8c 3c dc 2e 01 3c d1 0a 5f 3b d0 63 b4 bb
       0.017115874 0.007884707 0.0034033547 -0.0055050626
000170 67 c6 b3 bb 43 75 16 3b cf b7 58 ba 13 59 cf bb
       -0.005486298 0.0022958077 -0.00082671357 -0.006327757
000180 5b 21 87 3c 8c 3c 42 3c ae 35 07 bc d1 9d 00 3c
       0.016495397 0.011855256 -0.008252544 0.007850126
000190 1b 96 3b ba da e2 12 bc ba 55 8a bb 7c 56 03 3c
       -0.00071558513 -0.008965218 -0.004221645 0.008016225
0001a0 07 08 0a bd 34 f9 80 bb aa 29 9a 3b 95 93 84 bc
       -0.03369906 -0.0039359573 0.004704674 -0.016183654
0001b0 47 88 df 3b 26 71 b0 3a 52 99 01 3c 8a df 3b bb
       0.0068216654 0.0013461455 0.00791009 -0.0028667175
0001c0 75 90 53 bc 3d 4e 5e 3c 18 7d 62 bc f9 89 4d bb
       -0.012912859 0.013568458 -0.01382377 -0.0031362756
0001d0 fc b7 d0 ba 4f 9b 25 3c ff 76 ca bb eb dd 7d 3b
       -0.0015923972 0.010107829 -0.006178736 0.003873701
0001e0 17 80 77 3c 16 83 e8 bc c9 a0 42 bc 42 f1 0b bc
       0.015106223 -0.02838282 -0.0118791545 -0.008541407
0001f0 fc 1b f5 bb c6 9a 96 bb f3 86 9b bb 8e 2d 47 3b
       -0.0074801426 -0.004596087 -0.004746312 0.0030392143
000200 88 76 12 3c 1d 63 30 bb 5c cc 22 3b 73 52 39 bc
       0.008939393 -0.0026914545 0.0024841046 -0.011311161
000210 0e 56 c7 3b 8f 58 02 bc 17 72 d5 bb d4 8d 94 3c
       0.0060832566 -0.007955684 -0.0065138447 0.018134035
000220 5b 14 d9 bb d1 cf 1b bb f4 9a 3a bc 48 7e cb bb
       -0.006624741 -0.0023774991 -0.011389483 -0.0062101223
000230 ac 55 f5 3b 77 88 3d bc 98 be a8 3c 07 34 dd bc
       0.0074870195 -0.01156818 0.020598695 -0.027002348
000240 63 33 92 3a d2 75 28 3c d8 94 7c bb a8 0b 6a 3b
       0.001115423 0.010281997 -0.0038540866 0.0035712514
000250 63 90 25 3c 6a 48 de 3b da 74 22 bc cc 2c 51 3c
       0.010105225 0.006783535 -0.009915555 0.012767028
000260 67 c7 a2 3c ec 33 68 bc 97 51 08 3c 0e e9 96 bc
       0.019870473 -0.014172535 0.008320234 -0.018421676
000270 6b aa 4b 3a 60 9c eb 3b 04 90 83 bc 00 1a 83 3c
       0.00077692297 0.007190272 -0.016059883 0.016003609
000280 0d f1 34 bb d5 04 4d bc 5c a0 23 bb 6b 5f a9 bc
       -0.0027609498 -0.012513359 -0.0024967408 -0.020675382
000290 07 08 a8 bc 56 80 62 3c 46 36 17 bc 21 e2 5d bc
       -0.02051164 0.013824543 -0.009229248 -0.013542683
0002a0 d5 6c d5 3b 60 5d ec bc 60 65 39 bb 13 2b 49 bc
       0.006513218 -0.028853118 -0.0028289184 -0.012278336
0002b0 01 e5 4b 3b 85 bf 14 3c 7d e4 8d 3c a2 c5 45 bc
       0.0031111839 0.009078865 0.017320866 -0.012071045
0002c0 78 cc a7 3b 31 ae 12 3c 54 c7 29 bc ba b8 01 3c
       0.00512081 0.008952663 -0.010362465 0.007917577
0002d0 15 d1 92 3c d4 97 e4 3b 59 48 b6 3b 03 b2 f1 3b
       0.017921964 0.006976107 0.0055628237 0.007375957
0002e0 c5 2f 70 3c fb 28 cc 3b fc 96 d7 bb 00 94 bb 3b
       0.014659827 0.006230471 -0.006579278 0.00572443
0002f0 c5 a9 11 3c 5e 09 68 3c 44 12 96 bc 72 48 01 bc
       0.008890574 0.01416239 -0.018319257 -0.007890807
000300 77 64 09 3c 49 e9 9a bc f7 f4 6f 3c 1e be de 3b
       0.008385769 -0.018910067 0.0146458065 0.006797566
000310 90 b7 6c 3b 70 6b b2 3b 4d 46 83 bc b1 9c 02 3a
       0.0036120154 0.0054449365 -0.016024733 0.0004982455
000320 92 63 b1 3b e6 28 c1 bb c7 0a e5 bb f5 63 77 3c
       0.005413481 -0.005894768 -0.00698981 0.015099515
000330 3d 67 5c bc 78 a2 59 ba 73 39 8a bb 40 ca a4 bb
       -0.013452348 -0.0008302103 -0.0042182743 -0.005028993
000340 38 b4 07 bc 84 82 46 bc 86 51 9a 3b ab fa 7d bc
       -0.008282714 -0.012116078 0.0047094254 -0.015501658
000350 6f 85 38 3b bc 8e 6e bc de 1f 4a bc af 03 2a bc
       0.0028155704 -0.014560398 -0.012336699 -0.010376855
000360 b6 c4 81 bc 8f 9d b8 ba 07 06 6a bc c0 8b 9f 3b
       -0.01584087 -0.0014085042 -0.014283664 0.0048689544
000370 47 84 93 3c 7f 3f 85 3b d2 7c ca bb 45 90 b3 3a
       0.01800741 0.004066407 -0.0061794305 0.0013699612
000380 c6 0b 48 bc 4d 0f ad 3b 9b 67 96 bb b4 70 9b bc
       -0.012209838 0.005281365 -0.0045899875 -0.01897464
000390 1e cf 1f 3b 00 bc 00 bc 84 fe db 3b 1b 32 8f bb
       0.0024384926 -0.007857323 0.0067136902 -0.0043699867
0003a0 59 c5 15 bd 22 84 59 38 bc 56 d0 bb fd 22 a0 3b
       -0.03656516 5.185989e-05 -0.006357996 0.0048869834
0003b0 fd 95 4b bc a7 44 b1 3b 9a 86 07 bc 09 39 10 bc
       -0.012425897 0.0054097953 -0.008271838 -0.008802661
0003c0 d5 58 4d 3a da d9 06 bb 53 93 2b 3c e0 68 32 3c
       0.00078333664 -0.0020576627 0.010472137 0.010889262
0003d0 d9 62 e9 3b fa 26 89 bb 2d cd 37 bc 16 93 8e 3b
       0.0071223793 -0.0041855546 -0.011218351 0.00435103
0003e0 79 97 e3 bb dd b6 01 bc 5e 20 f5 3b fd 35 01 3c
       -0.006945547 -0.007917133 0.007480665 0.007886407
0003f0 64 b7 be 3c ca 72 2a bb 3b 1c 43 3c 2b b4 4e bc
       0.023280807 -0.002600836 0.011908586 -0.012616198

update_node_embedding_layer.0.message_layer.weight f4 [64, 128]
000000 32 10 b5 3a 50 82 c9 3b 1e 17 64 bc fa 66 2e ba
       0.0013814031 0.0061495677 -0.013921527 -0.0006652918
000010 10 dd 18 bc bc 19 54 3c a9 aa 48 bc 27 92 bc 3b
       -0.009330049 0.012945589 -0.01224772 0.0057547274
000020 6f 20 03 bc ee 35 e0 bb be 0a 17 bb 18 7a a5 3b
       -0.008003338 -0.0068423664 -0.0023047174 0.005049955
000030 93 04 4c bc 16 69 17 bc 79 ed 1b 3b 3f 6d 28 bc
       -0.012452262 -0.009241363 0.0023792668 -0.010279953
000040 3e 50 9a 3b cb 47 c8 bc 8b 71 5d 3c 2f bd 8a 3b
       0.0047092726 -0.024448296 0.01351584 0.004233978
000050 16 9e 98 3a 58 79 76 3a 79 da fc 3b a0 1a 67 bb
       0.0011643793 0.0009402237 0.0077164737 -0.0035263672
000060 38 db 21 bc f8 77 c6 3a d7 40 82 3b 8f bf 84 bb
       -0.009878926 0.0015141955 0.0039750147 -0.004051156
000070 10 15 27 bc f4 42 7e 39 97 36 08 ba 15 0d 3c 3c
       -0.010197893 0.0002424827 -0.0005196123 0.011477728
000080 58 94 53 3c b7 4a ae 3b a6 41 cd 3b 13 02 c0 3c
       0.012913786 0.0053189653 0.0062639294 0.023438489
000090 32 1d 8e bb 72 3b f3 3b 57 43 18 3c 04 3f 8e bb
       -0.0043369764 0.007422858 0.009293399 -0.004341008
0000a0 5d 6a 7c 3b e5 24 bd bb 27 13 1d 3a 05 c1 f0 3b
       0.0038515546 -0.0057722204 0.00059919286 0.0073472285
0000b0 81 bb 3e bc 7c 57 8a bc 19 60 3e 3b 7a 69 1c 3b
       -0.011641384 -0.016887419 0.0029048978 0.002386658
0000c0 cf 38 88 3b 82 2e a5 bc cb cb 9d bb 57 48 4f 3c
       0.0041571627 -0.020163778 -0.004815554 0.0126515245
0000d0 fb 2d 4b 3c 07 bc eb ba 95 97 4f bb 01 1d d1 3b
       0.012401099 -0.0017985114 -0.0031676043 0.0063816314
0000e0 dd 9b 72 3b 97 75 12 3c 89 7c d0 bb 93 78 cc 3c
       0.0037019171 0.008939168 -0.006362502 0.024959838
0000f0 ae 1e 49 3c 95 4d 90 bc 28 45 22 bc 0e 6b 04 3c
       0.012275381 -0.017615119 -0.009904183 0.008082164
000100 92 66 5f 3c 8a 48 fc bb 53 9b 18 bb ce ee e0 bb
       0.0136352945 -0.007699077 -0.002328594 -0.0068644052
000110 d9 39 0b 3c 9d d1 ba bb 28 68 82 bb 46 ad 39 3b
       0.008497679 -0.0057012574 -0.0039797015 0.0028332039
000120 3f 14 18 3c 03 02 e3 3b b1 fe e3 39 8a 02 7b 3c
       0.009282171 0.00692773 0.00043486574 0.01532043
000130 e6 db f5 3b 3e 28 b4 3b 37 18 0a bc 0e d4 ec ba
       0.0075030206 0.0054979613 -0.008428625 -0.0018068568
000140 a7 65 e6 bb 50 70 8f ba 4c 4a 40 bb 12 a7 82 ba
       -0.007031161 -0.0010943506 -0.002934116 -0.0009968004
000150 ed c4 c8 bb c4 e8 52 bb af 7e f8 bb fb 89 d2 3b
       -0.006126991 -0.0032182196 -0.0075834612 0.00642514
000160 e0 8f de ba 02 f4 6e 3b 44 79 1f ba e2 7c f3 bb
       -0.0016980134 0.0036461358 -0.00060834386 -0.0074306587
000170 93 bf 57 ba 95 93 b4 3b e8 e7 0e bc 22 80 18 bc
       -0.0008230146 0.005510757 -0.008722283 -0.009307893
000180 31 8f df ba e1 1f 2c 3c 1e 41 5a 3b d4 de a5 ba
       -0.0017056224 0.010505647 0.0033302973 -0.0012654909
000190 f2 39 07 bc 75 03 21 bc c1 3a dc bc 23 b8 b8 bb
       -0.008253561 -0.009827484 -0.026883485 -0.005637185
0001a0 cf 94 f4 3b 39 0c 2a 3c c9 43 5f 3b 43 cb 0c 3c
       0.0074640284 0.010378891 0.0034067503 0.008593383
0001b0 70 4d fb ba 0a 88 be ba 9d 62 6f bc 16 24 bc 3b
       -0.0019172858 -0.0014536392 -0.014610914 0.0057416065
0001c0 44 03 09 3b c5 9b 4d 3c 21 a6 aa 3b 4b 4a 6a 3b
       0.0020906487 0.012549345 0.0052077924 0.0035749848
0001d0 de 4a aa b9 ad cb 91 bc 47 fd 16 bb 94 de 03 bc
       -0.00032480707 -0.017797315 -0.0023039149 -0.008048672
0001e0 84 e1 ce 3b 77 ec e4 3b d4 1e 38 3c 21 21 74 bb
       0.0063135047 0.0069861966 0.011237819 -0.0037251192
0001f0 ec 6c 44 3b 0e 82 cc 3b 3b 74 29 3c 43 db 97 bc
       0.002997215 0.0062410897 0.010342653 -0.01853717
000200 c6 ee 6a bc 37 7a c4 bc 73 3a cf bb 74 1b a1 3b
       -0.014339155 -0.023984058 -0.0063241064 0.0049166027
000210 5d 60 b6 bb 14 73 2b bc b0 10 4e 3b dc d2 4e 3b
       -0.0055656866 -0.0104644485 0.0031443052 0.0031558787
000220 33 74 7d bc e1 d9 cb ba 0c 2a 77 3b c2 2d d1 3b
       -0.015469599 -0.0015552604 0.003771427 0.0063836286
000230 a9 97 0c bc 6f 35 67 3c 44 53 28 3b 51 7a 39 bc
       -0.0085810805 0.014111861 0.0025684396 -0.011320666
000240 52 2b 3f 3b 1c 8e f7 bb 5e 01 7e bc bf ff 15 bc
       0.0029170108 -0.0075547826 -0.015503256 -0.009155213
000250 7c d3 c1 39 ec 0f 64 bc 86 03 68 bb 64 75 84 bb
       0.00036969397 -0.013919812 -0.003540249 -0.0040423144
000260 24 0e 33 bb f9 08 8a bc 4c 10 16 3b 47 46 03 3d
       -0.002732166 -0.016849982 0.0022897897 0.032049444
000270 ed 29 19 3b c7 58 77 3a 91 19 23 bb ca 8f 58 bc
       0.0023370937 0.0009435531 -0.0024887065 -0.013217876
000280 70 8a 2a 3c 50 c7 ef 3b a0 75 be 3c cc d8 1d bc
       0.010408983 0.007317461 0.023249447 -0.009634208
000290 53 39 b6 3b 19 48 25 3c 9e a2 2a 3b d0 c6 8d bc
       0.005561033 0.01008799 0.0026036869 -0.017306715
0002a0 8b 41 a8 3b 53 0b f8 bb 61 e3 55 3b 87 57 43 bc
       0.0051347665 -0.0075697093 0.003263675 -0.011922724
0002b0 d6 c0 4d bb 70 4d e3 ba 01 9c 4d bc a0 c5 82 bb
       -0.0031395457 -0.0017341804 -0.012549401 -0.003990844
0002c0 bb 01 67 bc 18 a5 0b 3c 42 e7 b8 bb 2b da d1 bb
       -0.014099534 0.008523248 -0.0056428025 -0.0064041815
0002d0 0f 91 30 bc 17 1a 51 3c f2 63 4e bc c0 e5 2a bc
       -0.010776772 0.012762568 -0.012597071 -0.010430753
0002e0 4f 9e d0 bb b3 72 41 bc 40 5b 9a 3b 6c 13 5e 3c
       -0.006366528 -0.011807132 0.004710585 0.013554435
0002f0 0c 77 f6 b8 e9 f9 d0 3b 3f 0d 67 3c e7 f8 e0 3a
       -0.00011752368 0.006377448 0.014102279 0.0017164022
000300 80 75 95 3b fd 8a 28 ba 86 07 a1 3a 89 0d 34 bb
       0.004561126 -0.0006429402 0.0012285567 -0.0027473888
000310 a0 40 40 3c 97 52 13 bc 04 1b c4 3b ad d8 3f 3c
       0.011734158 -0.008991859 0.005984666 0.011709374
000320 df f6 81 bc 12 ed f2 3a af 50 dd 3b cc 5f 7e 3c
       -0.015864788 0.0018533787 0.006754003 0.015525769
000330 71 33 e2 bb 02 e2 83 bc 94 53 73 bb 7d 6c 70 bb
       -0.006903105 -0.01609898 -0.0037128674 -0.0036685758
000340 c3 29 34 3c 7b 7a 26 bc 90 08 1e 3c 45 4a c2 ba
       0.010996285 -0.010161038 0.009645596 -0.001482316
000350 3b 4d 35 3c bb 0c 0e 3c 69 68 d5 3a f7 54 a4 ba
       0.011065776 0.008670027 0.0016281727 -0.0012537529
000360 e7 9b 81 3c 3c 94 2a 3a 23 1d b6 bb 5a f0 96 ba
       0.01582141 0.0006507074 -0.0055576726 -0.0011515722
000370 af 54 37 bc 11 b1 6e 3a 59 7a 1a 3c 74 2e 10 bc
       -0.011189624 0.00091053644 0.009428584 -0.008800138
000380 8a 0d 99 3b af f9 44 3c 5b 33 e7 3c ee 58 80 bb
       0.0046708034 0.01202242 0.02822273 -0.0039168512
000390 1e 86 7f 3b 0f 77 91 3b 0d 0c 81 3c 43 c1 33 3c
       0.0038989852 0.0044392417 0.015752817 0.01097137
0003a0 15 68 23 bc a0 91 82 b8 f3 19 72 3c 82 4a 77 3b
       -0.009973546 -6.226008e-05 0.014776695 0.003773362
0003b0 04 86 3e 3b 4a b0 c6 bb 11 f5 31 3b 56 cb f9 bb
       0.0029071579 -0.0060634958 0.0027154128 -0.0076231165
0003c0 7d b3 ae bb ee 36 20 bc e7 c9 4e 3c 2d 93 2d bc
       -0.0053314553 -0.009778721 0.012621379 -0.0105941715
0003d0 22 34 3f bc 65 95 27 bc b5 04 9e bc 40 b8 27 3c
       -0.011670144 -0.0102284895 -0.019289354 0.0102368
0003e0 d5 9b fa bb b0 b4 2c 3c 61 7f 34 3c 67 f1 3e 3b
       -0.007647971 0.010541126 0.011016698 0.0029135586
0003f0 da e4 a4 3c c2 6a 18 3c e4 53 5e 3c d9 99 71 3c
       0.020128656 0.009302797 0.013569806 0.014746153

update_node_embedding_layer.0.update_layer.weight f4 [64, 128]
000000 59 90 f4 bb dc fe 1f bc 69 b9 fc bb 9a 31 36 bc
       -0.0074634966 -0.009765353 -0.0077125323 -0.011120224
000010 8d 84 01 bc ad 2e 0b bc d6 c9 2f 3a 7c 18 0e 3b
       -0.007905138 -0.008495015 0.0006705796 0.0021682074
000020 11 85 76 3b 27 c9 bf ba ba 17 86 3b 06 9c aa 3b
       0.0037615935 -0.0014632092 0.004092184 0.0052065877
000030 29 94 99 3c dc 65 ad 3b 50 21 a3 bc a5 19 60 bc
       0.018747406 0.0052916836 -0.019913346 -0.013677989
000040 69 47 73 3b 8d d7 aa 3a 28 e6 8a bb 2c af f2 bb
       0.0037121421 0.001303421 -0.0042388625 -0.007406136
000050 4c 00 87 bb 9f f9 1e 3c 01 55 bc bc 0e 36 57 bc
       -0.0041199084 0.009703069 -0.022989752 -0.013135446
000060 3d 0b d1 3b a2 3e d4 bc 02 4e 14 3c 84 f7 80 3b
       0.0063795135 -0.025908772 0.009051802 0.003935756
000070 ef bf 1d 3b db 8c a7 3b 5b 28 5c ba 8d e9 01 bc
       0.00240707 0.005113227 -0.00083983474 -0.007929218
000080 7f a7 04 ba f5 96 3f ba d2 8d ac bc de 1b dd bb
       -0.0005060359 -0.0007308566 -0.021063719 -0.006747707
000090 64 10 e7 bb 32 d9 16 3b a4 2a 25 3b 46 d4 8e 3a
       -0.0070515145 0.0023017642 0.0025202418 0.0010897003
0000a0 82 dd d9 bb bd db 04 3c 82 04 0c bb 7f 53 8f 3b
       -0.0066487202 0.00810903 -0.0021364992 0.004373967
0000b0 73 a7 ed 3b dc 20 d8 bb 87 1e 17 bc 28 ce b0 3b
       0.0072526275 -0.006595714 -0.009223587 0.0053956695
0000c0 a5 57 66 3c c6 cd 72 3b fe e4 cf bb 65 2e 3a 3c
       0.014058982 0.003704892 -0.0063444367 0.0113636
0000d0 74 da 13 3c d3 d3 38 3a 89 fc 46 bb c7 6e 82 3b
       0.009024251 0.0007050607 -0.0030362925 0.003980491
0000e0 32 7e 57 bb 50 05 5b bc c4 a9 3f bc 13 93 df bb
       -0.0032881615 -0.013367966 -0.01169819 -0.0068229525
0000f0 31 d5 9f b9 5f 27 3f 3b 89 f0 8e 3b 00 2e 43 bc
       -0.00030485683 0.0029167754 0.00436217 -0.011912823
000100 39 72 b5 bb 5d 25 1f bc c6 bb 03 3c cf aa 75 3b
       -0.005537298 -0.009713498 0.008040374 0.0037485843
000110 40 c0 99 3a aa 74 b5 3b 76 e1 06 3c a7 0d ac bc
       0.0011730269 0.005537589 0.008232465 -0.021002604
000120 01 28 95 3c 0b 45 e6 bb ea 7c b7 3a c4 db 44 bb
       0.018207552 -0.0070272735 0.0013999019 -0.0030038217
000130 79 ec 9e 39 32 2f d5 ba 39 bd 88 bb a2 92 31 bb
       0.00030312294 -0.0016264676 -0.0041729477 -0.0027095457
000140 fe d8 6d 3c 6b 6f 0c 3b 1b 93 d7 bb 0f 9e 93 3a
       0.014517067 0.0021428715 -0.0065788156 0.0011262315
000150 c0 07 c0 bc 22 2a 2a bc bb 86 95 bb fb 8a 3d ba
       -0.023441195 -0.010386022 -0.0045631803 -0.00072304875
000160 fe 1d 82 3a 80 2a 05 bc 8a 8e 51 bb c0 e0 df bb
       0.0009927151 -0.008127809 -0.003197583 -0.006832212
000170 fa 29 14 3c b0 bf 6f 3c 41 29 08 bc 9b 9a 51 ba
       0.009043211 0.014633104 -0.008310617 -0.00079957553
000180 80 a4 1e 37 8c 9f 76 3c 72 0d 25 3c 06 ca 29 3b
       9.4558345e-06 0.015052687 0.010074006 0.002590777
000190 06 60 74 ba 02 71 50 3b 74 92 01 3c 5b e0 83 3c
       -0.000932217 0.003180564 0.007908452 0.016098192
0001a0 34 69 07 bc dd 9c ae bb cc 45 2b bb 95 0a b6 bb
       -0.0082648285 -0.005328758 -0.0026134131 -0.0055554607
0001b0 b2 a2 95 b8 67 74 43 bc 00 55 00 3c 5b 93 93 3c
       -7.135178e-05 -0.011929608 0.007832766 0.0180146
0001c0 86 cf 85 3b 38 9e 77 bc 77 af 55 bc bd 04 ff bb
       0.0040835766 -0.015113406 -0.013042322 -0.0077825473
0001d0 b5 6e 5f bc e0 45 65 bb aa 0f 8a bc 4b d0 89 3b
       -0.013637234 -0.0034984276 -0.016853172 0.0042057387
0001e0 6c 39 70 3b 8f 9e 7a bc 73 fd 06 bc 6b 31 ae bb
       0.003665532 -0.015296592 -0.008239138 -0.0053159497
0001f0 5d 5d 88 3b dd 58 12 bc 6c d6 fb b8 83 96 0e bc
       0.0041615204 -0.0089323195 -0.00012008552 -0.008702877
000200 78 03 f4 bb 2b f2 a1 bc be e1 9a bb 54 1f 8a 3c
       -0.0074467026 -0.019768795 -0.0047266176 0.016860642
000210 d4 29 10 bc eb 5d 3e 3b 7e 3e 3a 3b 40 15 1f bc
       -0.008799035 0.0029047679 0.0028418596 -0.009709656
000220 a5 f5 4a 3c f9 76 82 bc 0e 43 35 3c b6 18 81 bc
       0.012387668 -0.015925871 0.01106335 -0.015758853
000230 ce 85 28 bc 40 97 74 bb 05 6c 16 bb aa 7c 22 bb
       -0.010285808 -0.0037321597 -0.0022952568 -0.0024793544
000240 27 9c 0b bb 15 f6 7e 3b 12 ff 88 bb c7 c0 83 3a
       -0.002130279 0.0038904 -0.0041807974 0.0010051959
000250 ee 9b b9 3c 15 bf 80 3b ea 76 a5 3c e0 df f7 3b
       0.02265736 0.0039290288 0.020198304 0.00756453
000260 9c 27 5e bc 13 bf 7a 3c c0 af c1 bb 3f 2a 0b 3a
       -0.013559248 0.015304345 -0.0059108436 0.00053087244
000270 6b 3c d1 ba f2 d3 b4 3b 97 07 11 bc 82 b9 29 3c
       -0.001596344 0.00551843 -0.008851907 0.01035917
000280 4d 45 1a bb c7 f5 e7 bb 42 81 78 3b 06 76 da bb
       -0.0023539842 -0.0070788595 0.003791884 -0.0066669015
000290 19 c8 6b 3b d4 f5 05 bb a7 3c bd ba f6 a1 94 ba
       0.0035977422 -0.0020440714 -0.0014437631 -0.0011339772
0002a0 cf d7 14 3c 14 45 81 bb 09 e2 91 3c a3 9a f1 3a
       0.009084656 -0.0039450023 0.017807977 0.0018432926
0002b0 7d 88 c2 bb dc c6 1f bc f7 7e 44 bc c9 15 d4 3b
       -0.005936681 -0.009752002 -0.011993161 0.0064723236
0002c0 9d d9 11 bc 7b 71 25 bc 3b e2 38 bb af 21 ca 3a
       -0.008901981 -0.010097857 -0.0028211016 0.0015421415
0002d0 37 ef 34 bc f3 2c 27 3a 47 c7 5e 3c c3 42 23 3b
       -0.011043361 0.00063772424 0.013597316 0.002491162
0002e0 13 69 bf bb ae 77 c7 3b 0a 3f 4d 3c e5 04 37 3c
       -0.0058413832 0.006087265 0.012527237 0.011170601
0002f0 0f 54 54 3c ec 67 e1 3b 50 1d bc ba a9 ef 92 bb
       0.012959494 0.0068788435 -0.0014351998 -0.004484136
000300 dc 65 bc 3c 28 15 73 3c 11 16 0b bc b9 7e 87 3b
       0.02299779 0.014836587 -0.008489148 0.0041349796
000310 11 26 74 3a 9f ff 99 bc 99 0b 8e bb e9 2e 97 39
       0.00093135337 -0.018798647 -0.0043348786 0.00028835915
000320 8e c4 ca bc e0 05 4a bb 06 d7 0f bc d6 9a b4 ba
       -0.024751928 -0.0030826256 -0.008779293 -0.0013779055
000330 d2 8a cf 3c 9b f5 a3 39 60 0e e7 b9 31 75 c4 3b
       0.02533475 0.00031272773 -0.00044070464 0.0059954156
000340 e0 e9 2b bc fc 27 17 bb 16 62 f6 b8 78 64 a5 39
       -0.010492772 -0.0023064604 -0.00011748464 0.00031546107
000350 f1 37 40 bc 62 0e 41 3c 1b ce 9e 3b 66 84 85 3b
       -0.0117320875 0.011783214 0.004846347 0.004074621
000360 d5 5c 9f b9 c0 68 ee bb 47 4c 11 bc 7c 51 32 bc
       -0.00030396009 -0.0072756708 -0.008868284 -0.010883685
000370 b3 a0 17 39 32 ca c2 3b 86 fd 8d ba 22 ce b9 ba
       0.00014460347 0.0059445137 -0.0010833002 -0.0014175812
000380 bc 51 72 3c f1 7b a1 ba 97 a4 ac bb 7e 68 33 bc
       0.014789995 -0.0012320263 -0.005268644 -0.010950206
000390 10 71 84 3b 53 aa b7 ba 3e c5 56 3b 1f 1c 24 bc
       0.0040417984 -0.0014012553 0.0032771374 -0.01001647
0003a0 ea 54 3e 3a 6d c4 06 3c 48 69 a5 bb 17 a1 6e bb
       0.0007260578 0.0082255425 -0.005047951 -0.0036411935
0003b0 cf e3 83 b7 26 36 fa 3b 59 3c 9e bc 18 ae 82 3c
       -1.5722499e-05 0.0076358495 -0.019315885 0.015952155
0003c0 a7 ab 22 b8 dd 7a 9b bb cf 3a 66 bb 10 d5 70 bb
       -3.8783674e-05 -0.004744871 -0.0035130267 -0.003674809
0003d0 f8 08 fe 3b 38 0a 4e bb 6d 10 32 3c 59 96 62 bc
       0.007752534 -0.0031439196 0.010868174 -0.013829791
0003e0 d7 46 09 3c 45 97 c3 b9 77 e0 59 3c 86 04 35 bc
       0.008378706 -0.00037306003 0.0132981455 -0.011048442
0003f0 43 c1 1a bc 72 f4 6d bb aa 9e 0e 3c 79 21 2c bc
       -0.009445491 -0.003630903 0.008704821 -0.010506027

update_node_embedding_layer.1.message_layer.weight f4 [64, 128]
000000 07 32 02 3c 8b c0 6a 3c f0 6e 4e ba 7a e4 96 3c
       0.007946498 0.014328132 -0.00078748073 0.018419493
000010 82 03 8b 3c 07 10 67 ba f7 e8 9d bc 29 f1 3c 3c
       0.016969446 -0.0008814339 -0.019276125 0.011532106
000020 d6 5d 76 bb f0 9f ed 3c a0 93 ac 39 91 9c d7 3b
       -0.0037592552 0.029006928 0.00032916386 0.0065799435
000030 41 69 0b bb 7d 54 ce 3a 76 a5 1c bb 17 3c 3d 3c
       -0.0021272453 0.0015741732 -0.0023902333 0.011549971
000040 58 2d 6b b9 29 ee 87 bb b5 90 5d 3a c3 56 9f bb
       -0.00022428238 -0.004148264 0.0008452044 -0.0048626377
000050 fc 3f 27 3c 74 f6 f8 b9 aa c6 bc bc ae be 88 b8
       0.010208126 -0.00047485868 -0.02304395 -6.520502e-05
000060 85 cd bc 3b 84 69 8d bb ad 3c 68 3b 6d b5 d3 bb
       0.0057618045 -0.004315557 0.0035436556 -0.0064608366
000070 bb e2 29 ba 71 7f d7 bb ba 6a 7f bc d6 d7 93 3a
       -0.0006480624 -0.0065764715 -0.01558941 0.0011279534
000080 08 e2 80 ba 02 bf e7 3b ad b3 c4 3b c7 c5 f1 ba
       -0.0009832988 0.0070723305 0.0060028643 -0.0018445783
000090 eb e3 78 bc 6d 31 1b bc cb 6c 83 3c a0 41 36 bb
       -0.015191059 -0.009472233 0.016043087 -0.0027810112
0000a0 68 35 b4 3b cb 00 44 3b 80 21 11 3c bd b2 98 3a
       0.0054995306 0.00299077 0.008858085 0.0011649948
0000b0 4b 5c 05 bc 32 00 ee bb 29 6a cf 3b ff fd 99 ba
       -0.00813968 -0.007263207 0.006329794 -0.001174867
0000c0 96 be b1 bb 8f b6 a1 3b f7 4b 02 bb 08 db 65 ba
       -0.005424331 0.0049350928 -0.0019881704 -0.0008768295
0000d0 57 f6 b4 3b c0 7e ed 3b aa 16 56 ba 60 06 5f 3c
       0.00552253 0.007247776 -0.00081668294 0.01361236
0000e0 42 ec 97 bc 43 ca c2 bb 02 e5 3e bb a7 a1 08 bc
       -0.018545274 -0.0059445216 -0.0029128199 -0.008339322
0000f0 c7 1b 04 bb 7b b3 f4 ba 6b 74 5f bc 00 95 3f 3b
       -0.0020158158 -0.0018669212 -0.013638596 0.0029233098
000100 be 00 4a bb c7 aa 2c 3c 19 54 b2 bb 6e 32 8a bb
       -0.0030823196 0.010538763 -0.005442154 -0.0042174375
000110 49 5b 7a bc c0 88 16 3c 10 fd fe 3b e9 cb df 3a
       -0.015280553 0.009187877 0.0077816322 0.001707432
000120 f8 fd ec bb c6 52 14 bb 66 b5 cc 3a fd dd 87 3b
       -0.007232424 -0.0022632345 0.0015618026 0.004146336
000130 db d8 75 ba 82 3f 3f bc a8 54 09 bc eb 0a 7f ba
       -0.0009378322 -0.011672856 -0.008382 -0.0009729105
000140 f4 ec de ba a6 c3 1e 3c 46 7b ce 3b ab 4d 84 bc
       -0.0017007873 0.009690201 0.0063013164 -0.016150316
000150 1c b7 38 bc 60 d3 90 3b 7b c4 b9 bc 82 fd f3 3a
       -0.011274125 0.004419729 -0.022676697 0.001861498
000160 3a fe 14 bb 67 e9 a9 3b bb 3d d9 bb 4f 04 ab ba
       -0.0022734539 0.0051852944 -0.0066296733 -0.0013047549
000170 33 bf 06 bc 9f c7 3e 3c b3 8f 56 3b 65 b8 58 3c
       -0.008224296 0.011644273 0.003273946 0.013227557
000180 3e ab 44 bc 68 91 87 bb b0 05 56 bb b0 1e 28 bc
       -0.012003718 -0.004137207 -0.0032657199 -0.010261223
000190 6b 3e 08 bb ed a0 74 bc ad 64 a0 bb 6e 37 be 3b
       -0.0020789157 -0.014930946 -0.004894814 0.0058049476
0001a0 39 4b 25 bc 96 f3 b3 3b 09 86 96 bc f5 7f f9 bb
       -0.010088735 0.005491684 -0.01837446 -0.0076141306
0001b0 0f 65 98 ba 32 98 1e 3b 63 2e 27 3c b9 31 c7 3b
       -0.0011626797 0.0024199602 0.010203931 0.0060789254
0001c0 93 76 ee bb fd f4 00 bc c0 7c 00 bc 1e 05 e7 bb
       -0.0072773187 -0.00787091 -0.007842243 -0.0070501706
0001d0 9a 13 c7 3a 01 80 6d bc 95 00 9d bc a9 7a c2 3a
       0.0015188337 -0.014495851 -0.019165317 0.0014837581
0001e0 1e 39 85 3a 72 9a 5e 3c e0 8c 91 3b 12 94 b0 bb
       0.0010164117 0.013586627 0.0044418424 -0.005388745
0001f0 38 54 b2 bb ab 3c ea bb b7 95 1a 3c f7 f7 0a bc
       -0.0054421686 -0.0071483455 0.009435109 -0.008481971
000200 b0 47 85 3c 54 c7 46 bc 9b 68 06 3c a5 4c 20 3c
       0.016269535 -0.0121324845 0.008203651 0.0097838985
000210 f6 80 61 bc 51 09 30 3c c7 74 4a bc 04 c8 35 3c
       -0.013763657 0.010744409 -0.012356943 0.011095051
000220 b6 69 cf 3c 68 44 a3 3c d4 e9 e3 ba a1 59 85 3c
       0.025318962 0.01993008 -0.0017388412 0.01627809
000230 14 16 cb 3b f8 ed bd bb c4 df 9d 3b ce 9d c0 3b
       0.0061977003 -0.0057961904 0.0048179347 0.005878187
000240 8e a0 48 ba 52 4a 4c bc 78 7b 0b 3c fe b5 06 3d
       -0.0007653319 -0.012468891 0.008513324 0.032888405
000250 20 64 07 3c e1 10 24 bb ce 6d 3a 3c 92 e7 e7 ba
       0.008263618 -0.0025034475 0.011378719 -0.0017692915
000260 69 ac ee 3c 46 4d 34 bc 35 e3 29 bb ce 33 fd b8
       0.029134946 -0.011004752 -0.002592278 -0.000120736295
000270 12 cd 03 3c e7 65 ab b9 f2 b2 f2 bb f1 f4 37 bb
       0.008044498 -0.00032691585 -0.007406586 -0.002806958
000280 ec 3d 5b bc ee 2e 6d bb 7f 79 f7 3b 62 93 ac bc
       -0.013381463 -0.0036191302 0.0075523253 -0.021066371
000290 9f b9 14 3c 5a 40 23 3b 32 bf 6c 3a 39 bb c4 3a
       0.009077459 0.0024910183 0.0009031176 0.001500941
0002a0 8a d7 a0 3c 49 19 48 3c 8d 4e c2 39 43 38 08 3c
       0.019634027 0.01221306 0.00037061088 0.008314195
0002b0 3c ec aa 3a 99 5d 5e bb d3 5c b5 39 34 02 cc 3b
       0.0013040374 -0.00339303 0.0003459217 0.0062258486
0002c0 1b 4d 7d bc 15 39 b6 bb 8a 76 0b bc 49 02 af 3b
       -0.015460278 -0.005561004 -0.008512149 0.0053408486
0002d0 ee 81 bb 3b 45 7d b1 bc 5e bd 0e bc db 58 5c bb
       0.005722276 -0.021666178 -0.008712141 -0.0033622298
0002e0 89 a1 95 bb 72 ca 94 bc 6a c3 e3 3a 6e 06 bf bb
       -0.0045663756 -0.01816294 0.0017376964 -0.005829624
0002f0 15 05 a8 3b c1 c9 b0 3c 5f 9b f7 ba 29 a5 b7 39
       0.005127559 0.021580579 -0.0018890909 0.00035027534
000300 7d 91 25 3b dd 4b 34 3c 40 ac ba 39 c6 6d 82 3b
       0.002526372 0.011004415 0.0003560502 0.003980371
000310 ea bc 92 3c 26 cd 3e bb dd 6a 97 bc 1d 47 32 3b
       0.017912347 -0.0029113977 -0.018483574 0.0027203031
000320 65 8b 62 bc 27 3d 39 bc 18 e8 10 bc fc cd cf 3a
       -0.01382718 -0.011306084 -0.008844398 0.0015854235
000330 b6 f5 c6 3a 00 6a 96 bc dc 40 08 3b 69 f2 03 bc
       0.0015179429 -0.018361092 0.0020790612 -0.008053401
000340 aa ab a3 3b 84 be b3 ba d5 d9 71 3c d5 a5 52 ba
       0.004994829 -0.0013713394 0.014761408 -0.0008035575
000350 40 4e ee ba 10 14 bb 3b 51 1a 96 3b 3e a4 95 3b
       -0.0018181279 0.0057091787 0.004580774 0.0045666983
000360 52 20 0e bc 07 67 52 3b 32 6b 31 3c 72 54 4d bc
       -0.008674698 0.0032104866 0.01082878 -0.01253234
000370 49 4b 3a bc b5 55 25 3b 42 17 85 3b 8c 82 7a bc
       -0.011370488 0.0025228087 0.0040616104 -0.015289914
000380 9e 98 a3 bb 82 c4 c8 3b 10 ec 50 bb 3b 53 5a 3a
       -0.0049925586 0.006126941 -0.0031878985 0.00083284423
000390 e3 f0 21 bb 33 19 02 3c fd 61 b4 bb 8f 92 e0 3b
       -0.002471023 0.007940578 -0.005504845 0.0068534086
0003a0 51 31 80 3a 9e a7 3c bb d0 c7 27 bc ac 7e 6a ba
       0.0009780322 -0.002878643 -0.01024051 -0.0008945267
0003b0 b4 40 89 bc 55 87 d5 bb cc fe 4f 3c 34 f8 bb bb
       -0.016754486 -0.006516377 0.012695026 -0.005736375
0003c0 5f b0 1c bb f3 30 ef ba 26 2b f5 39 00 19 1b bc
       -0.0023908836 -0.0018248841 0.0004676219 -0.00946641
0003d0 da 05 bb bb ce c2 75 ba ff 84 fd ba a3 4f dd 3b
       -0.0057074847 -0.00093750365 -0.0019342004 0.006753878
0003e0 c1 8d 27 bc 99 53 3d 3b be 48 19 bb 6f 0b ae 3b
       -0.010226668 0.002888894 -0.0023389305 0.0053114216
0003f0 a7 37 8e bb 0b d3 26 3c e0 82 f6 3b 3b bf ce bb
       -0.0043401304 0.0101821525 0.0075229257 -0.0063094175

update_node_embedding_layer.1.update_layer.weight f4 [64, 128]
000000 14 90 74 bb 07 14 08 bb 8f c0 54 bc 9b 73 b8 3b
       -0.0037317323 -0.002076389 -0.012985363 0.0056290156
000010 ac f7 7e bb a3 e5 39 bb f6 d9 15 3b 00 21 b9 bb
       -0.0038904948 -0.0028365634 0.002286551 -0.005649686
000020 31 b4 16 3c 6b 5a 81 3b df 19 ca 3b 94 78 39 bc
       0.009198234 0.0039475462 0.006167635 -0.011320252
000030 5f 61 8a 3b 2e d2 22 bc 15 88 a6 3b 5f 42 57 3b
       0.0042230333 -0.009937806 0.00508214 0.0032845957
000040 85 ba b2 3c dd 47 10 3c 82 01 f4 bb 9e fa 8b 3b
       0.021817455 0.008806196 -0.007446469 0.0042718193
000050 4b 8e c3 bb 6c f9 5f bc 36 35 82 3c fb fd 23 bc
       -0.0059678904 -0.013670307 0.015894514 -0.010009284
000060 d0 1c 54 bb 80 5c 09 3c f3 c5 8a bb 89 d5 b1 3b
       -0.0032365806 0.00838387 -0.004235023 0.0054270667
000070 97 0a 36 ba 50 e1 da bc 5e d4 34 3c 4f 2c 67 3a
       -0.0006944327 -0.026718765 0.01103696 0.0008818553
000080 d7 ed 33 3b 9b 43 1b bc a0 60 a8 39 a5 09 54 3b
       0.0027454996 -0.009476568 0.00032115448 0.0032354381
000090 dd 24 76 3c 0b f0 bf bb f4 63 52 bc 08 fe 38 bb
       0.015023437 -0.005857473 -0.0128412135 -0.0028227586
0000a0 08 30 92 3b c6 2d 95 3c 8f 0a f8 b9 b9 fc 29 bc
       0.004461292 0.018210303 -0.00047310113 -0.010375195
0000b0 14 27 81 3c ce d8 16 bc a6 f7 51 bb 02 c3 49 3b
       0.015765704 -0.009206964 -0.003203848 0.00307864
0000c0 48 af 82 bb d4 32 23 3a 80 74 0e 3b 5a 5d b0 bb
       -0.0039881803 0.00062255305 0.002173692 -0.005382222
0000d0 1c 66 b0 3b 5c d7 17 3c 81 1f c5 3b 85 34 df 3b
       0.005383266 0.009267654 0.0060157184 0.0068116807
0000e0 b8 d4 1b 3b 8c 5e d6 bb 3d e0 4c ba 0b c1 5b bc
       0.0023777913 -0.0065420326 -0.00078153965 -0.013412724
0000f0 9a 8e 99 3b e6 c3 ad bc c5 a3 96 3c b0 1e c4 bb
       0.004686189 -0.021211576 0.018388638 -0.0059851035
000100 f0 99 9e 3b 9d 0a fa 3b 26 ac 49 3c 88 fe 30 3c
       0.004840128 0.0076306597 0.01230911 0.0108028725
000110 51 21 cc 3b 1e df c5 ba 27 ef 81 3b 1f fb fa 39
       0.0062295576 -0.0015096401 0.0039652768 0.00047870816
000120 0f 3a 79 3b 4d 43 a4 3a c7 6d b7 bb 8e dc b7 3b
       0.003802899 0.0012532264 -0.0055978033 0.005611009
000130 58 b7 48 3a 47 0f 45 3c 2c c0 4d 3c 98 ec 00 bc
       0.0007656715 0.012027568 0.012558024 -0.007868908
000140 8b dc 31 bb ca 62 81 bc 87 51 fb ba 5c 60 52 bc
       -0.002713951 -0.015794177 -0.0019174077 -0.012840357
000150 f6 1e 30 bb 8d cc ac 3c e6 a4 a4 3c 75 1f bd bc
       -0.0026873923 0.021093631 0.020098161 -0.023086289
000160 ed c9 5c bb c4 82 20 bb ae 49 0c 3b ce 73 12 bc
       -0.0033689693 -0.0024492005 0.0021406221 -0.008938743
000170 58 a8 3c 3c 4f 2c 8c 3c ea 4e 34 b9 b2 bd 2a 3c
       0.011514746 0.017110972 -0.00017195535 0.010421203
000180 64 d4 c7 3a 55 8f d3 3a 79 ff 98 3b ca 2a bc 3b
       0.0015245792 0.0016140739 0.0046691266 0.0057424055
000190 d6 9b ba bb a7 76 85 3b 07 d5 aa 3b f1 4f 47 3b
       -0.0056948466 0.0040729824 0.005213383 0.003041264
0001a0 54 2b 09 3d b6 24 1d 3b d0 c4 cd bb 92 de f2 b8
       0.033488587 0.002397818 -0.0062795654 -0.00011580916
0001b0 fe fc f5 3b 82 32 17 bc 79 1f 20 bc 69 ca e1 38
       0.0075069657 -0.009228351 -0.009773129 0.00010766538
0001c0 f5 ca b0 bc e7 e8 37 3c 52 67 18 3c e5 5c 18 3c
       -0.021581152 0.011224962 0.009301977 0.0092994915
0001d0 4e bb 57 bb d3 ea 59 bc 0d f1 89 bb 58 2f 7b bc
       -0.0032918039 -0.013300615 -0.0042096437 -0.015331112
0001e0 48 be 1e 3c 46 25 bc b6 a1 c0 eb b9 11 1c b5 bb
       0.009688921 -5.607176e-06 -0.00044966213 -0.0055270274
0001f0 fd be 9d 3b 5b 64 9d 3a 06 3c 52 bb 10 08 1e 3b
       0.0048140273 0.0012008058 -0.0032079234 0.0024113692
000200 f9 6c c6 3b 15 84 c0 bb e6 15 a4 b8 d7 13 92 3c
       0.006055471 -0.0058751204 -7.824208e-05 0.017831726
000210 51 4c 00 3c 1b d9 cb 3c e4 8e a5 bb 17 c3 b3 3b
       0.007830695 0.024883797 -0.0050524343 0.005485903
000220 bf 1d 85 bc 2f 4a dc bc 6a d3 64 bc 49 30 33 bc
       -0.016249536 -0.026890842 -0.013966421 -0.010936805
000230 ac 4b 12 3c a9 aa 04 3b 1a e9 d1 bb f4 3c a4 bb
       0.008929174 0.0020243323 -0.0064059617 -0.005012149
000240 a2 b9 b4 39 74 a5 9b 3c 3e f0 f5 b8 89 1b 75 bc
       0.00034470583 0.018999793 -0.00011727259 -0.014960178
000250 73 d3 71 3b 99 80 dd bc 86 fa af b9 16 45 31 bb
       0.0036899715 -0.02703886 -0.00033565256 -0.0027049235
000260 de a9 bc 3b 92 7e ae 3c f5 24 80 3c 59 c0 b9 3b
       0.0057575544 0.021300588 0.015642622 0.0056686816
000270 f5 7d fc bb dd c8 f5 38 34 96 11 3c 69 0e c8 3b
       -0.007705445 0.00011719924 0.008885909 0.0061052334
000280 4c cf d7 3b ac 62 62 bb f6 93 af bb 2f 80 36 3c
       0.006585991 -0.0034543676 -0.0053582145 0.01113896
000290 0a 34 84 3b 36 35 37 bb 37 28 24 bc 60 61 e8 bb
       0.004034524 -0.00279553 -0.010019354 -0.007091686
0002a0 1e 2f 3d bb 6c c7 5d bc 77 e3 75 bc db c2 47 bc
       -0.0028867195 -0.013536315 -0.015007845 -0.012192453
0002b0 6b 5b 91 bc 22 38 81 3c af b9 43 3b 6f 67 70 3b
       -0.017743787 0.015773837 0.0029865315 0.0036682745
0002c0 22 c3 e7 b7 2e 43 f6 bb 67 9a 21 bc a4 92 56 3c
       -2.7628212e-05 -0.0075153327 -0.009863473 0.013096485
0002d0 9c 90 a8 bb 53 42 21 bc b7 3a 18 3c f5 7b de ba
       -0.005144192 -0.009842473 0.009291342 -0.0016974198
0002e0 62 d7 c9 bb b7 0d bb ba 03 12 33 3b 79 ce 1a 3b
       -0.006159709 -0.0014271055 0.0027323968 0.0023621602
0002f0 9b c3 06 bc 4a 03 fe ba d7 56 37 bc 16 b0 26 ba
       -0.008225347 -0.0019379642 -0.011190138 -0.00063586363
000300 27 15 70 bc 8a 3b 34 3c da 77 d0 bb 96 5e db 3a
       -0.014653481 0.011000523 -0.0063619437 0.0016736563
000310 4a 5f a4 3b 86 63 2f 3c 4b 9a 23 3b ef 96 7d 3c
       0.005016242 0.010704881 0.0024963792 0.01547788
000320 18 4e 20 3c 78 34 5d 3c 3d 84 4c bc 20 fc 62 3b
       0.009784244 0.013501279 -0.0124827 0.0034635141
000330 9e 66 65 3c c9 43 36 3b 8a 4f 6d 3b 95 d7 c5 ba
       0.014001517 0.00278114 0.003621074 -0.0015094156
000340 6d a8 20 3b 86 49 37 bc 51 d7 4d bc 28 2d c1 bc
       0.0024514452 -0.011186963 -0.012563542 -0.023581102
000350 5c 35 d8 3b d8 98 86 bb a2 66 64 3b 12 65 71 bc
       0.006598158 -0.004107576 0.0034851213 -0.01473357
000360 9b 9b 17 3b da f9 31 bc 78 a8 a5 bc cb 48 96 bc
       0.002313352 -0.010862792 -0.020221934 -0.018345257
000370 d4 72 5e 3c b7 d3 d9 3b 93 fc d6 bb 40 4a 0a 3c
       0.013577182 0.006647553 -0.006560871 0.008440554
000380 c5 97 23 bc 19 48 b0 bb f1 13 d6 3a 51 82 ec 3a
       -0.009984915 -0.0053796885 0.0016332847 0.0018044208
000390 e9 4b 87 bc 75 7f 50 3b 52 0f 25 3b e2 a8 3a 39
       -0.016515689 0.0031814252 0.0025186134 0.00017801256
0003a0 27 5e f3 3b 04 b9 cb bb 4c 86 31 3c 2b 79 5f 3a
       0.0074269953 -0.006217124 0.0108352415 0.00085248303
0003b0 36 df 16 3c a6 8b 99 ba c5 47 83 3c f9 5e 56 3c
       0.009208491 -0.0011714592 0.016025433 0.013084167
0003c0 5d d4 aa 3c ca 86 1e 3b b0 cf eb ba ed d3 49 39
       0.020853216 0.0024189227 -0.0017990973 0.00019247802
0003d0 81 40 10 3b 65 e3 1a bc b0 d4 17 3c 47 af 03 bb
       0.0022011104 -0.009453629 0.009267017 -0.0020093487
0003e0 d4 e5 16 bc 6b fd 3d bc 6a 31 15 bc ff 08 fa bb
       -0.009210069 -0.011596064 -0.0091060195 -0.007630467
0003f0 39 27 02 3b d6 f3 06 3c 81 50 4d 3a 17 3a 60 3c
       0.0019859804 0.008236846 0.00078321254 0.013685725

update_node_embedding_layer.2.message_layer.weight f4 [64, 128]
000000 07 43 38 3c 0c 6d 08 bb ff d9 8c 3b 61 fb 63 bb
       0.011246449 -0.002081695 0.004298448 -0.0034787285
000010 0c 49 65 bb fd 7b aa bb d9 01 22 bb 33 e8 c7 bb
       -0.0034986166 -0.005202769 -0.002472034 -0.0061006784
000020 b5 00 d8 bb 57 88 ac ba 8c 55 02 bc 54 54 23 3c
       -0.006591881 -0.0013163191 -0.007954966 0.009968836
000030 5d 91 f6 3b ab cb b1 ba 52 c3 2d bb ec 60 40 bc
       0.007524653 -0.0013564726 -0.0026514125 -0.011741858
000040 86 fc 17 3c 4a c2 b1 bc 81 7a 5a bb 47 1b 87 3c
       0.009276515 -0.02169909 -0.0033337178 0.016492499
000050 b2 64 6f bc 42 fe a2 bb 0d 86 0a bb 66 48 a1 bb
       -0.01461141 -0.0049741575 -0.002113703 -0.0049219606
000060 83 4f 85 bb 37 db 88 3c 27 e1 0b 3b cf a6 80 bc
       -0.0040683164 0.016706092 0.0021343918 -0.01570454
000070 be 46 04 bb c5 50 94 bc 62 49 15 3c 12 60 4d ba
       -0.0020183767 -0.01810492 0.009111734 -0.0007834445
000080 0f e6 70 3b d8 3e 80 bb b1 37 5e 3b 87 21 85 bc
       0.003675822 -0.0039137416 0.0033907706 -0.016251339
000090 5c 2b 39 3c 66 6b 5e 39 44 b9 5b 3b 34 c8 9b 3b
       0.011301842 0.00021211579 0.0033527175 0.0047540907
0000a0 96 9d 5d bc b9 15 0b 3a fb 6d 9c bc 72 e9 7f 3c
       -0.013526341 0.0005305666 -0.019095412 0.015619623
0000b0 5b d9 a7 3c be aa e6 bb c9 08 f3 3b f2 f6 30 3b
       0.020489385 -0.007039397 0.0074168188 0.002700266
0000c0 d2 7f fc 3b bf df 6e 3c fd 98 c5 bb 4a e7 8e 3c
       0.007705667 0.014579712 -0.0060302005 0.017444272
0000d0 2b 4f 49 3c 39 d9 e1 b8 04 9f 07 bc 73 2e 46 39
       0.0122869415 -0.00010769297 -0.008277658 0.00018900055
0000e0 c9 c5 ff b9 c1 19 bb 3b 30 33 0e 3c b4 fd 1a 3c
       -0.00048784752 0.005709857 0.008679196 0.009459902
0000f0 62 69 24 3b 06 08 51 bc 89 48 85 3b b6 03 15 bc
       0.0025087227 -0.012758261 0.0040674848 -0.009095123
000100 7c 99 4f bc b1 2e 8d 3b 0f ec aa 3c 67 05 40 3b
       -0.012670871 0.0043085446 0.020864515 0.0029300095
000110 64 08 b7 3c b0 fa da 3b c5 a6 bf ba 04 d6 0f bb
       0.022342868 0.0066827163 -0.0014621845 -0.0021947632
000120 89 4d 80 ba f6 06 67 bb ad b3 9e bb 09 5f 6e 3c
       -0.0009788732 -0.0035251952 -0.0048431964 0.014549025
000130 dd 9b 77 bb 10 9b 44 3c 1c 4f 89 ba 8b df cd bc
       -0.003778211 0.01199986 -0.0010475847 -0.025131008
000140 f5 82 d1 bb 2b a5 0c bc 64 52 89 3b 18 0d f8 3b
       -0.006393785 -0.008584301 0.00419073 0.0075699203
000150 d0 c9 e4 bb 72 b7 b7 3c 36 12 87 3b 82 7e 60 bb
       -0.0069820657 0.02242634 0.004122044 -0.0034255092
000160 f3 bd 13 3c 91 b2 81 bc 3a 1a 93 bb 89 10 86 bb
       0.009017455 -0.015832217 -0.0044892104 -0.0040913266
000170 e6 0c 44 3c 13 15 90 bb 3c 32 c2 bb 5b c3 46 3c
       0.011965966 -0.0043970435 -0.0059263986 0.012131537
000180 6f 42 25 3c f2 f1 5f 3c 98 4b c0 bb 80 f3 ac bb
       0.01008664 0.013668524 -0.0058683865 -0.005278051
000190 7f 35 13 bc 52 26 86 bb ad e3 52 bc fb fc f7 b9
       -0.008984922 -0.0040939236 -0.012871665 -0.00047299996
0001a0 76 36 ae b9 c7 d2 88 bb 37 b1 71 3b 9b 72 d7 bb
       -0.00033228443 -0.0041755172 0.003687931 -0.0065749413
0001b0 80 f5 b0 3b 58 eb b1 bb e4 b7 94 bc 5b d0 f4 3a
       0.0054003596 -0.0054296665 -0.018154092 0.0018677817
0001c0 0d 9c 17 3c 68 73 c1 ba f5 09 41 bc 9f 2c 0c bc
       0.009253514 -0.0014759125 -0.011782159 -0.00855556
0001d0 44 ec 5b bb fb 6a 30 3c 17 03 5d 3c 8f 3a c9 ba
       -0.0033557573 0.010767694 0.013489506 -0.0015352535
0001e0 63 4d ce 3b eb ed 0e 3c 39 e2 63 3b b7 87 68 bb
       0.0062958463 0.008723716 0.003477229 -0.0035481283
0001f0 ae 7b 3d ba 43 47 9b 3b 43 ee c7 3b d0 e5 02 3b
       -0.00072282075 0.0047387197 0.006101401 0.0019973405
000200 74 e8 77 3b 01 91 83 3b e5 44 96 3b 5d b4 73 b8
       0.0037827762 0.0040150885 0.0045858496 -5.810369e-05
000210 63 43 92 3a 3a 24 57 bc aa 9c c8 bb 64 ff 53 3c
       0.0011158999 -0.013131196 -0.0061221914 0.012939308
000220 34 98 b0 3b a5 67 74 3c a3 8d a6 bb 03 44 86 3b
       0.005389238 0.014917289 -0.0050828024 0.004097463
000230 9c 67 3a 3a 00 0b 18 3c 59 5b 1b 3a 7a 04 ec bb
       0.0007110776 0.009279966 0.00059263926 -0.007202682
000240 dd 39 64 3b 1b 75 10 3c d8 b7 ad 3b a6 c8 04 bd
       0.0034824528 0.008816983 0.005301457 -0.032417916
000250 fe 36 9a bc 92 a8 0f 3c ba 18 31 bc 95 31 37 bb
       -0.01882505 0.008768218 -0.010809118 -0.0027953137
000260 77 51 31 3b 94 91 01 3c 99 eb ff bb 1b d9 6d 3c
       0.0027056613 0.007908244 -0.007810068 0.014517094
000270 9f 18 fa ba cb ec db 39 46 24 2f 3c cc 49 08 3b
       -0.0019080824 0.0004194736 0.010689801 0.002079594
000280 59 f4 31 bc 00 66 58 3c a4 0e f1 39 d5 b6 89 ba
       -0.01086148 0.013207912 0.0004597801 -0.0010506759
000290 c5 a2 93 3b fe 7d 9f 3b b9 f4 d5 39 10 07 40 3b
       0.0045054876 0.0048673144 0.00040808858 0.0029301085
0002a0 5c 51 7d bb a8 07 bc bb 90 01 13 bc 00 f6 85 3c
       -0.003865323 -0.0057382174 -0.0089725405 0.016352654
0002b0 91 86 86 3a da 27 ec bb 3c 02 11 3a f3 b1 d5 3a
       0.0010263493 -0.007206899 0.0005531644 0.0016303643
0002c0 01 ef 8a 3b cf 72 22 bc fe d9 1c bc d9 4a 53 bc
       0.0042399173 -0.009915068 -0.009573458 -0.012896263
0002d0 87 be 54 3b 2f 35 83 3c 32 60 d6 3a 46 f6 05 3b
       0.0032462196 0.01601657 0.0016355573 0.002044098
0002e0 8e f6 bb 3b 51 f1 80 bc ee 8b 3e bc b8 ec 1a bc
       0.0057361787 -0.015740069 -0.0116300415 -0.009455852
0002f0 2b 1b 5c 3a b7 fa bb bb d0 63 c3 3c c8 8c c8 ba
       0.00083963823 -0.0057366746 0.023851305 -0.0015300745
000300 dc 13 a1 bb 3b 5b 22 b8 14 7a cf 3a e2 b7 f6 3c
       -0.0049156975 -3.8708775e-05 0.0015829229 0.030116979
000310 05 9e 6e bb e9 92 29 bc 54 29 71 bb cb 59 69 3a
       -0.0036410105 -0.0103499675 -0.0036798315 0.0008901625
000320 d2 1b 50 3a 16 6c bf 3b 8e 3d 51 bc 75 d0 e5 bb
       0.0007938716 0.0058417423 -0.012771023 -0.0070133754
000330 26 ad b8 bb 4d 41 9a 3c 62 f6 b8 ba 54 c5 91 bc
       -0.0056358753 0.018829966 -0.0014111514 -0.017794289
000340 e6 0c 53 bc 27 2f 87 3b 1b 15 00 3b e8 44 3f bc
       -0.012881493 0.004125494 0.001954383 -0.011674143
000350 38 87 62 bc 71 9c 18 3a c3 f0 ab bb e0 34 c3 39
       -0.013826184 0.00058216514 -0.005247207 0.00037232693
000360 a5 75 23 3c c1 da cc 3b c5 21 a6 3b 36 30 18 3b
       0.009976779 0.0062516634 0.0050699436 0.0023222095
000370 12 00 ee ba 6f 3a 3b 3c 65 9c 99 3c b8 cb 1b 3c
       -0.001815798 0.011427506 0.018751333 0.00950902
000380 bc 23 8a 3c 4e 6e 4b 3c 34 5e 10 bc e2 af 1d bb
       0.016862743 0.012416435 -0.008811522 -0.0024061133
000390 98 72 1c bc 03 59 28 bc 53 b4 01 3b 9e 63 09 bc
       -0.009548806 -0.010275128 0.001979132 -0.008385567
0003a0 c3 b7 84 3c b5 b1 39 3c 67 03 f6 ba 39 88 55 bb
       0.016200906 0.011333873 -0.0018769325 -0.0032582416
0003b0 97 09 4f bc b6 20 1d bb 8c 23 69 bb 48 91 63 bc
       -0.012636564 -0.0023975796 -0.0035574166 -0.013889618
0003c0 90 be 38 3c a3 cc 99 3b 79 89 4c bc a0 04 e3 ba
       0.011275902 0.004693584 -0.012483948 -0.0017320104
0003d0 ed 49 b3 3b 32 ec b4 3b d7 ce 0b ba 14 93 cd bb
       0.005471459 0.0055213207 -0.0005333251 -0.0062736366
0003e0 29 69 b7 bc e1 18 82 3c 53 14 07 3c 20 06 96 3b
       -0.022389011 0.015881004 0.008244592 0.004578367
0003f0 65 c9 e0 bb ee b8 09 3c ad 0d c4 3b 38 4c 5b 3c
       -0.0068599456 0.008405907 0.0059830756 0.013384871
