rlsolver/methods/L2A/model/graph_trs_GraphType.PL_20.pth (torch, 144267 bytes, 118 tensors)

mlp_inp.mlp.0.weight f4 [20, 20]
0	0x3e0f1409	0.13972487
1	0xbe31b3bf	-0.17353724
2	0xbdaaabfc	-0.08333585
3	0xbe11da36	-0.14243397
4	0x3e574da6	0.21025714
5	0x3d726746	0.05918052
6	0xbd834f9f	-0.06411671
7	0xbe20adfb	-0.15691368
8	0x3dd56fb8	0.10421699
9	0xbc553ece	-0.013015462
10	0x3e2b7295	0.16742928
11	0xbde49765	-0.11161689
12	0xbbd97fe1	-0.006637559
13	0xbcfb1924	-0.030651636
14	0xbe1e3721	-0.15450718
15	0xbe15a561	-0.14613868
16	0x3e0da686	0.13833055
17	0xbe30354c	-0.17207831
18	0x3e1cfb11	0.15330149
19	0xbd33369c	-0.04375325
20	0xbdf542ca	-0.1197563
21	0x3c8a57cb	0.016887566
22	0xbda196d6	-0.07890098
23	0x3c9ba8e9	0.019001441
24	0xbcece622	-0.02891833
25	0xbd4e47a7	-0.0503613
26	0xbe47a448	-0.19496262
27	0x3dc2a2b9	0.09503693
28	0x3de19a0b	0.110157095
29	0xbe348dee	-0.17632267
30	0x3e1b42f4	0.1516226
31	0x3e609809	0.21932997
32	0xb9cd97ac	-0.0003921365
33	0xbe4b1659	-0.19832744
34	0xbe62faca	-0.22165981
35	0x3e32ee29	0.17473663
36	0x3daab4c7	0.08335262
37	0x3d912c34	0.07088509
38	0xbd048a6e	-0.03235858
39	0x3e627329	0.22114243
40	0xbdad5ba5	-0.084647454
41	0xbe555edd	-0.20836969
42	0x3d983742	0.074324146
43	0x3cbea22f	0.023270695
44	0xbde2493a	-0.11049123
45	0x3dae6f65	0.085173406
46	0x3e63ce8e	0.22246763
47	0x3e2c2b67	0.16813432
48	0xbcf6066e	-0.030032363
49	0x3e0890e0	0.13336515
50	0x3bf79355	0.007555405
51	0xbe5ba3ab	-0.21449153
52	0xbdc8fe91	-0.0981418
53	0xbdebb652	-0.11509384
54	0x3d5c2985	0.053750534
55	0x3dd36969	0.1032284
56	0xbd039ad6	-0.032130085
57	0x3d81879a	0.06324692
58	0x3c9d5941	0.019207599
59	0x3d43448f	0.047672804
60	0xbd93d810	-0.07218945
61	0xbe50f560	-0.20406103
62	0xbe52a552	-0.20570877
63	0x3dac0824	0.0839999
64	0xbe198350	-0.14991498
65	0x3d9ed729	0.07755882
66	0xbe538895	-0.2065757
67	0xbe5624c5	-0.20912464
68	0xbc6aadc7	-0.014323658
69	0xbe1b085d	-0.15139909
70	0x3d1d7e83	0.03845073
71	0xbe1b9904	-0.1519509
72	0x3d9634c1	0.07334281
73	0xbe4d9af3	-0.2007864
74	0xbe5a25cc	-0.21303481
75	0xbe0e7d13	-0.139149
76	0x3e0d6bf9	0.1381072
77	0xbdf3b69a	-0.11900063
78	0xbe0872ae	-0.13324997
79	0x3d8363d8	0.06415528
80	0xbe3473fd	-0.17622371
81	0x3dff8820	0.12477136
82	0x3e0d44f8	0.1379584
83	0x3e260beb	0.16215484
84	0xbe460050	-0.19336057
85	0x3dbaac39	0.0911488
86	0xbdbf9989	-0.093554564
87	0xbe2467c8	-0.16055214
88	0xbdf2f5af	-0.11863267
89	0x3e4b9709	0.19881834
90	0xbb47fac7	-0.0030514465
91	0x3e1c24a8	0.15248358
92	0xbd95ce17	-0.07314699
93	0x3cb02571	0.021502228
94	0xbc8b7c1b	-0.017026952
95	0x3e44854b	0.19191472
96	0xbe189735	-0.14901431
97	0xbcf19eba	-0.029494632
98	0xbd16b2a8	-0.036791474
99	0xbccb4858	-0.02481477
100	0x3df7fef2	0.12109174
101	0xbd62a944	-0.055337206
102	0xb9db7856	-0.00041860592
103	0x3e2c5288	0.16828358
104	0x3da429ab	0.0801576
105	0xbe45bf42	-0.1931124
106	0xbe604b08	-0.21903622
107	0x3d6f4845	0.05841853
108	0x3ce11575	0.027476052
109	0x3e391df0	0.18077826
110	0xbcfbb131	-0.03072414
111	0x3cececf4	0.028921582
112	0x3d441b80	0.04787779
113	0xbe0f49a2	-0.13992932
114	0xbe3f2aa0	-0.18668604
115	0xbd9a7f2e	-0.07543789
116	0x3d595880	0.053062916
117	0x3d4a9f9b	0.049468618
118	0x3e0bbcd1	0.13646246
119	0x3e281582	0.16414455
120	0x3e33e50d	0.17567845
121	0x3ddf905b	0.109162055
122	0xbe6164f7	-0.22011171
123	0xbe458607	-0.19289409
124	0x3e62e40f	0.2215731
125	0x3dce4f48	0.100737154
126	0x3e16ab49	0.14713778
127	0xbc85c70f	-0.01633027
128	0x3ceb7ce5	0.028746078
129	0xbdff0b01	-0.12453271
130	0x3db317c0	0.08744764
131	0x3dfb37a6	0.122664735
132	0x3ce02e23	0.02736575
133	0xbd8d928d	-0.06912718
134	0xbe0ec89d	-0.13943715
135	0xbe28d44f	-0.1648724
136	0xbd775bcc	-0.06039028
137	0xbe554180	-0.20825768
138	0xbe407014	-0.18792754
139	0x3e488b73	0.19584446
140	0x3dcab59e	0.09897922
141	0x3d5a1148	0.053239137
142	0xbe05b3c7	-0.13056861
143	0x3da27737	0.07932895
144	0x3e52eca0	0.20598078
145	0x3e6196fc	0.22030252
146	0x3ddd6c9a	0.1081173
147	0x3e12848d	0.14308377
148	0xbdec6747	-0.11543136
149	0x3e3721f9	0.17884053
150	0x3e5ea8bf	0.21744059
151	0xbe463bf6	-0.19358811
152	0xbe069ce2	-0.13145784
153	0xbd65dd74	-0.056119397
154	0xbe022185	-0.12708099
155	0xbe188893	-0.14895849
156	0xbc1b5f2d	-0.009483141
157	0x3df7f884	0.121079475
158	0xbe52921f	-0.20563553
159	0xbdf582a5	-0.11987809
160	0x3da79d19	0.08184261
161	0xbe49786c	-0.19674844
162	0xbe3795a2	-0.17928174
163	0x3e24a6f0	0.16079307
164	0xbdf34152	-0.11877693
165	0x3e351ea1	0.17687465
166	0x3d5782c2	0.052614935
167	0xbd9257ba	-0.07145639
168	0x3d4bb976	0.049737416
169	0xbe3ebd7a	-0.18626967
170	0xbaef5194	-0.0018258565
171	0xbdca84a6	-0.09888582
172	0xbe324308	-0.17408383
173	0x3df2d4f0	0.11857021
174	0xbdefa3de	-0.11701177
175	0xbdd230c8	-0.102632105
176	0x3e5e5484	0.21711928
177	0x3a3fc1be	0.00073149416
178	0x3d4f4938	0.050606936
179	0xbba08a7b	-0.0048993207
180	0x3e3383a9	0.17530693
181	0xbdc90b90	-0.098166585
182	0xbd9d50d0	-0.076814294
183	0xbe01c738	-0.12673652
184	0xbe2466e3	-0.16054873
185	0xbe3522dd	-0.1768908
186	0xbb51816e	-0.0031968015
187	0xbdddd17a	-0.1083097
188	0xbdd8ce44	-0.10586217
189	0x3dad44fe	0.08460425
190	0x3e1c5116	0.15265307
191	0xbe541d8e	-0.20714399
192	0x3dbe358a	0.092875555
193	0x3cf15fab	0.029464563
194	0xbe5350c0	-0.20636272
195	0xbd7bf299	-0.061510656
196	0x3e065f77	0.13122354
197	0xbe0ca1d0	-0.13733602
198	0xbc4cf703	-0.012510064
199	0x3dab238f	0.08356392
200	0x3e416c62	0.18889001
201	0xbe5f8607	-0.21828471
202	0x3e2b71ef	0.16742681
203	0xbe113304	-0.14179617
204	0xbd58650c	-0.05283074
205	0xbd9b5af8	-0.0758571
206	0x3da6e511	0.0814916
207	0xbe581110	-0.21100259
208	0x3dd70d64	0.10500601
209	0xbdcc493a	-0.09974904
210	0x3e3efbdd	0.18650766
211	0xbb7e23bd	-0.0038778626
212	0xbe161e6d	-0.14660044
213	0xbe00fff3	-0.12597637
214	0xbe07e974	-0.13272649
215	0xbbec1806	-0.0072050123
216	0xbd866082	-0.06561376
217	0xbd73525e	-0.059404723
218	0xbdee416c	-0.11633572
219	0x3e5ecf0a	0.21758667
220	0xbe40298d	-0.1876585
221	0x3de8e0d4	0.113710076
222	0xbd6bf61e	-0.057607763
223	0xbce99104	-0.028511532
224	0x3e4cf948	0.20016968
225	0x3e461006	0.1934205
226	0xbe5258ae	-0.20541641
227	0xbddcdd5e	-0.1078441
228	0x3e42ae93	0.19011907
229	0x3e34dd10	0.17662454
230	0x3d4eb852	0.05046875
231	0xbe2a1b06	-0.16611871
232	0x3e4ed33b	0.20197766
233	0x3e43530e	0.19074652
234	0xbd41cc90	-0.047314227
235	0xbdcc7f21	-0.099851854
236	0xbe229fd3	-0.1588128
237	0xbc53d4ac	-0.012929123
238	0x3e437fa7	0.19091664
239	0x3e588079	0.21142758
240	0x3da86dca	0.082240656
241	0x3cf2d2ea	0.029641587
242	0xbdabccbf	-0.083886616
243	0xbded730c	-0.11594209
244	0x3d338ed9	0.043837402
245	0x3d012d59	0.031537388
246	0x3df8c105	0.121461906
247	0xbd2aa359	-0.041659687
248	0x3e0a5332	0.13508299
249	0x3e5c7524	0.2152906
250	0x3d7deace	0.061991505
251	0x3deca4f7	0.11554902
252	0x3e1d3c47	0.15355025
253	0x3e4f91f6	0.20270523
254	0xbe3b499f	-0.18289803
255	0xbe5b2d99	-0.21404113

mlp_inp.mlp.0.bias f4 [20]
0	0xbe450629	-0.19240631
1	0xbe2bdfa4	-0.16784531
2	0xbe014854	-0.12625247
3	0xbe529cd9	-0.20567645
4	0x3e1cba80	0.15305519
5	0xbd6c44b0	-0.057682693
6	0x3e52fc84	0.2060414
7	0xbe275553	-0.16341142
8	0xbe2bf428	-0.16792357
9	0xbda8443e	-0.08216141
10	0xbdd99560	-0.10624194
11	0x3e3c9e2d	0.18419714
12	0xbe439072	-0.1909807
13	0x3e525c44	0.20543009
14	0xbdb666b8	-0.08906311
15	0x3e033b71	0.12815644
16	0xbcaa39b9	-0.020779477
17	0x3e02c9f2	0.12772349
18	0xbc6e347b	-0.0145388795
19	0xbe5c8094	-0.21533424

mlp_inp.mlp.2.weight f4 [20]
0	0x3f800000	1.0
1	0x3f800000	1.0
2	0x3f800000	1.0
3	0x3f800000	1.0
4	0x3f800000	1.0
5	0x3f800000	1.0
6	0x3f800000	1.0
7	0x3f800000	1.0
8	0x3f800000	1.0
9	0x3f800000	1.0
10	0x3f800000	1.0
11	0x3f800000	1.0
12	0x3f800000	1.0
13	0x3f800000	1.0
14	0x3f800000	1.0
15	0x3f800000	1.0
16	0x3f800000	1.0
17	0x3f800000	1.0
18	0x3f800000	1.0
19	0x3f800000	1.0

mlp_inp.mlp.2.bias f4 [20]
0	0x00000000	0.0
1	0x00000000	0.0
2	0x00000000	0.0
3	0x00000000	0.0
4	0x00000000	0.0
5	0x00000000	0.0
6	0x00000000	0.0
7	0x00000000	0.0
8	0x00000000	0.0
9	0x00000000	0.0
10	0x00000000	0.0
11	0x00000000	0.0
12	0x00000000	0.0
13	0x00000000	0.0
14	0x00000000	0.0
15	0x00000000	0.0
16	0x00000000	0.0
17	0x00000000	0.0
18	0x00000000	0.0
19	0x00000000	0.0

mlp_inp.mlp.3.weight f4 [32, 20]
0	0x3d4784da	0.04871068
1	0xbc83be80	-0.016082048
2	0x3d338604	0.04382898
3	0xbe463ec1	-0.19359876
4	0xbe554b94	-0.20829612
5	0x3e15895a	0.14603177
6	0xbe0b7151	-0.13617446
7	0x3dd14f18	0.10220164
8	0x3d4d27c9	0.05008677
9	0xbdb8d4fd	-0.09024999
10	0xbd61cb9d	-0.05512582
11	0x3e517d44	0.20457941
12	0xbd78edba	-0.06077359
13	0x3c72010f	0.01477076
14	0xbe52554d	-0.20540352
15	0x3dd93d18	0.10607356
16	0x3e013f05	0.12621696
17	0x3dcee24e	0.10101758
18	0x3db4f6bb	0.088361226
19	0xbc861b4d	-0.01637044
20	0xbe2af953	-0.16696672
21	0x3da6846a	0.08130725
22	0x3e5bebcd	0.2147667
23	0x3d532bfd	0.051555622
24	0x3de71c99	0.112847514
25	0xbdd0ec1e	-0.10201286
26	0x3dfc947d	0.123330094
27	0xbdbe37b1	-0.09287966
28	0xbd8ef650	-0.06980574
29	0x3d0f392b	0.03496663
30	0x3da45f55	0.08025996
31	0x3e5c70a7	0.21527348
32	0xbd2edae5	-0.042689223
33	0xbe1d43f8	-0.1535796
34	0x3d714191	0.05890042
35	0x3d729ca9	0.059231434
36	0xbe6090e5	-0.21930273
37	0x3e3a7126	0.18207225
38	0xbd95a451	-0.073067315
39	0xbdeab4a4	-0.11460236
40	0x3e46a546	0.19398984
41	0xbd028c1b	-0.031871896
42	0x3dbb89f9	0.091571756
43	0x3e4ba379	0.19886579
44	0xbe628de8	-0.22124445
45	0x3c030c9f	0.007998615
46	0x3e15f1d6	0.14643034
47	0xbe43b949	-0.1911365
48	0xbc8f102a	-0.017463762
49	0xbd97cd3a	-0.07412191
50	0x3e1403f8	0.14454639
51	0x3e07d736	0.1326569
52	0x3d63b033	0.05558796
53	0x3dd1d00f	0.10244762
54	0x3de91312	0.113805905
55	0xbe55f9af	-0.20896028
56	0x3e5268c4	0.20547777
57	0x3bcfc06e	0.006340078
58	0xbbfd43af	-0.007729016
59	0x3e46299c	0.1935181
60	0x3d582d89	0.0527778
61	0x3d6319e1	0.055444602
62	0xbe27f174	-0.16400701
63	0x3e56e216	0.20984682
64	0xbdee50f3	-0.116365336
65	0x3d9a5bef	0.07537066
66	0x3e3a40ec	0.18188828
67	0xbd414ba0	-0.047191262
68	0xbdfb5e43	-0.12273838
69	0x3e3d408b	0.18481652
70	0xbde712ad	-0.11282859
71	0xbcad440b	-0.02115061
72	0xbe13f9bf	-0.1445074
73	0x3ca10053	0.019653475
74	0x3d8ece74	0.069729716
75	0x3e5ad3d9	0.21369876
76	0xbd616f35	-0.055037696
77	0x3d621808	0.0551987
78	0xbe202057	-0.15637337
79	0x3d499991	0.049218718
80	0x3ca8f663	0.020625299
81	0xbe588a18	-0.21146429
82	0xbe3e655e	-0.18593356
83	0xbd7843d8	-0.060611576
84	0xbe5856ba	-0.21126834
85	0x3e5e3cb6	0.21702847
86	0x3dc06658	0.093945205
87	0xbdefd44e	-0.11710416
88	0xbd94bf74	-0.07263079
89	0x3ccf0562	0.025271121
90	0xbcd82d57	-0.026388807
91	0xbdc67d7c	-0.09691903
92	0xbd320fb3	-0.043472003
93	0x3e4071fe	0.18793485
94	0xbd971beb	-0.07378372
95	0xbc9c2918	-0.019062564
96	0xbdb1aca0	-0.08675504
97	0x3da74069	0.08166582
98	0xbe12bd54	-0.14330035
99	0xbe64251a	-0.22279778
100	0x3e052797	0.13003384
101	0xbd16ce30	-0.03681773
102	0x3d81c07b	0.06335541
103	0x3da6e958	0.081499755
104	0xbd24d753	-0.04024441
105	0x3c4be56e	0.012444837
106	0x3da9ccd0	0.08291018
107	0x3e259ed3	0.16173868
108	0xbe30f490	-0.17280793
109	0x3da2e5d1	0.0795399
110	0xbe636acf	-0.22208713
111	0xbe5ce607	-0.21572123
112	0x3dd75d46	0.10515837
113	0xbe179f58	-0.14806879
114	0x3e192251	0.14954497
115	0x3e4943a3	0.19654708
116	0xbd2cb4f6	-0.042164765
117	0xbd6a4444	-0.05719401
118	0xbd2729d7	-0.040811386
119	0x3e30ab33	0.17252807
120	0xbdbf9228	-0.09354049
121	0xbe15e5a5	-0.14638384
122	0x3d057820	0.032585263
123	0xbd97858f	-0.07398521
124	0x3e3c646c	0.18397683
125	0x3de37251	0.111057885
126	0xbd1b8add	-0.037974227
127	0x3e1c7651	0.15279509
128	0x3d3c793b	0.046014052
129	0xbe0ab878	-0.13546932
130	0xbe1c4720	-0.15261507
131	0x3d518a59	0.05115733
132	0xbd634fbd	-0.055495966
133	0xbe39882e	-0.18118355
134	0xbd98eeb3	-0.07467403
135	0x3e16961e	0.14705703
136	0x3e5679fa	0.20944968
137	0xbe5bab4d	-0.21452065
138	0xbd819a14	-0.06328216
139	0xbd382d65	-0.044965167
140	0xbd239dbf	-0.03994536
141	0xbbefa7e4	-0.0073137153
142	0x3d371a22	0.044702657
143	0x3e351664	0.17684323
144	0xbdb5490c	-0.08851823
145	0x3daaf6c8	0.08347851
146	0x3d1873ff	0.037219997
147	0xbe0343a5	-0.12818773
148	0x3e154968	0.14578784
149	0x3d80f799	0.062972255
150	0x3c62bb2e	0.013838572
151	0x3dee733b	0.11643072
152	0x3e02326b	0.12714545
153	0x3dc8960b	0.097942434
154	0xbd2bfac1	-0.041987184
155	0x3d1eb36d	0.038745333
156	0xbe0837bf	-0.13302515
157	0xbdf99bb5	-0.12187902
158	0xbddb3357	-0.10703152
159	0x3d805208	0.06265646
160	0xbd9ee9ca	-0.077594355
161	0xbe570797	-0.20998989
162	0xbdf611a4	-0.120150834
163	0xbddeaf64	-0.10873297
164	0x3e34ff3a	0.17675486
165	0x3e4aeb2c	0.19816273
166	0xbde1bc4c	-0.11022243
167	0x3dc4286d	0.09578023
168	0x3dbe0080	0.09277439
169	0x3e5e0521	0.21681644
170	0x3dc8bf89	0.098021574
171	0x3e0ddd9c	0.13854069
172	0x3e173d9b	0.14769594
173	0x3e472b2c	0.19450063
174	0x3e037738	0.12838447
175	0x3e427f7a	0.18993941
176	0xbe0f57e1	-0.13998367
177	0xbe427236	-0.1898888
178	0xbe065649	-0.13118853
179	0xbe622033	-0.22082596
180	0xbe16e77a	-0.14736739
181	0x3d9d01da	0.07666369
182	0x3d639c37	0.0555689
183	0x3dd7d37e	0.10538386
184	0xbe3ec7eb	-0.1863095
185	0x3e09f457	0.13472115
186	0xbdf28aa5	-0.118428506
187	0xbc7f2e2b	-0.015574972
188	0x3dfbed26	0.12301092
189	0x3e3c724b	0.18402974
190	0xbdd72fd3	-0.105071686
191	0xbe16a0d3	-0.14709787
192	0x3e3f2a3f	0.1866846
193	0xbe3d683b	-0.18496792
194	0xbd91b97b	-0.07115456
195	0x3d87817a	0.066164926
196	0x3c38c2c3	0.011276904
197	0x3da2bf69	0.07946665
198	0xbe1c7e31	-0.15282513
199	0xbe29ec52	-0.16594055
200	0x3de5ec0b	0.11226662
201	0x3d672628	0.056432873
202	0xbdbb520e	-0.0914651
203	0xbe0b2917	-0.13589893
204	0xbe16d82b	-0.14730899
205	0x3e494989	0.19656958
206	0xbe3506ff	-0.1767845
207	0x3d973468	0.073830426
208	0xbc94c959	-0.018162416
209	0x3cfb8c05	0.030706415
210	0x3bc078e0	0.0058737844
211	0x3e0b3f87	0.13598453
212	0x3d8449c4	0.06459382
213	0x3e0e5e17	0.1390308
214	0xbdf07542	-0.11741115
215	0x3e05fa40	0.13083744
216	0x3c6991e9	0.014255979
217	0xbd35cf72	-0.04438729
218	0x3c520257	0.012817941
219	0xbd948cb6	-0.07253401
220	0x3df985c8	0.1218372
221	0x3cadbb39	0.021207439
222	0x3e10201b	0.14074747
223	0xbdd5a4ac	-0.10431799
224	0x3e1e4001	0.15454103
225	0x3d2141ec	0.03936951
226	0x3e0a5666	0.13509521
227	0xbda55b77	-0.08074086
228	0xbd7c0ff9	-0.06153867
229	0x3e408d19	0.18803824
230	0xbe5dbb11	-0.21653391
231	0x3e5f2445	0.2179118
232	0x3dad881e	0.08473228
233	0x3e64f0b6	0.22357449
234	0x3e08de18	0.13365972
235	0x3e4ef88d	0.20212002
236	0x3e237190	0.1596129
237	0x3e6269c3	0.22110657
238	0xbe35ad1e	-0.1774182
239	0xbdc7458b	-0.09730061
240	0x3e347667	0.17623292
241	0x3e529d78	0.20567882
242	0xbe4173e2	-0.18891862
243	0xbddf47b9	-0.10902352
244	0xbde04f5f	-0.10952639
245	0xbca3dffd	-0.020004267
246	0xbde4d9aa	-0.111743286
247	0xbd118ce3	-0.03553475
248	0x3df263d6	0.118354484
249	0x3e53e209	0.20691694
250	0xbde8225f	-0.11334681
251	0xbe525bd7	-0.20542847
252	0xbdba87c3	-0.09107926
253	0xbe3869b8	-0.18009079
254	0x3d16333b	0.03666995
255	0x3d979b92	0.074027196

mlp_inp.mlp.3.bias f4 [32]
0	0x3d4074bd	0.04698633
1	0x3e5254c8	0.20540154
2	0x3e281669	0.16414799
3	0x3e6163e4	0.22010761
4	0xbe13b8b4	-0.14425927
5	0xbc68332f	-0.014172359
6	0x3c815cd6	0.015791338
7	0x3e0b9b05	0.13633354
8	0x3e38e176	0.18054757
9	0xbe16b081	-0.14715768
10	0xbc9ef89b	-0.019405654
11	0xbd1a5ad1	-0.037684266
12	0xbe2e22e7	-0.17005502
13	0xbe4298d0	-0.19003606
14	0x3cc6a3e0	0.024248064
15	0xbc11eec5	-0.008907025
16	0xbe590b43	-0.21195702
17	0x3e5ec913	0.21756391
18	0xbe211762	-0.15731576
19	0x3e4fd917	0.20297657
20	0x3e2d36f0	0.16915488
21	0x3de358f7	0.11100953
22	0x3db771d8	0.08957261
23	0x3e61197a	0.21982375
24	0x3e2781a4	0.16358048
25	0x3b840913	0.004029402
26	0xbe56bc8b	-0.20970361
27	0xbdabbfb5	-0.083861746
28	0x3e136c60	0.1439681
29	0xbdcbfa04	-0.09959796
30	0xbe4785cb	-0.19484632
31	0xbd106955	-0.035256702

mlp_inp.mlp.5.weight f4 [32]
0	0x3f800000	1.0
1	0x3f800000	1.0
2	0x3f800000	1.0
3	0x3f800000	1.0
4	0x3f800000	1.0
5	0x3f800000	1.0
6	0x3f800000	1.0
7	0x3f800000	1.0
8	0x3f800000	1.0
9	0x3f800000	1.0
10	0x3f800000	1.0
11	0x3f800000	1.0
12	0x3f800000	1.0
13	0x3f800000	1.0
14	0x3f800000	1.0
15	0x3f800000	1.0
16	0x3f800000	1.0
17	0x3f800000	1.0
18	0x3f800000	1.0
19	0x3f800000	1.0
20	0x3f800000	1.0
21	0x3f800000	1.0
22	0x3f800000	1.0
23	0x3f800000	1.0
24	0x3f800000	1.0
25	0x3f800000	1.0
26	0x3f800000	1.0
27	0x3f800000	1.0
28	0x3f800000	1.0
29	0x3f800000	1.0
30	0x3f800000	1.0
31	0x3f800000	1.0

mlp_inp.mlp.5.bias f4 [32]
0	0x00000000	0.0
1	0x00000000	0.0
2	0x00000000	0.0
3	0x00000000	0.0
4	0x00000000	0.0
5	0x00000000	0.0
6	0x00000000	0.0
7	0x00000000	0.0
8	0x00000000	0.0
9	0x00000000	0.0
10	0x00000000	0.0
11	0x00000000	0.0
12	0x00000000	0.0
13	0x00000000	0.0
14	0x00000000	0.0
15	0x00000000	0.0
16	0x00000000	0.0
17	0x00000000	0.0
18	0x00000000	0.0
19	0x00000000	0.0
20	0x00000000	0.0
21	0x00000000	0.0
22	0x00000000	0.0
23	0x00000000	0.0
24	0x00000000	0.0
25	0x00000000	0.0
26	0x00000000	0.0
27	0x00000000	0.0
28	0x00000000	0.0
29	0x00000000	0.0
30	0x00000000	0.0
31	0x00000000	0.0

mlp_inp.mlp.6.weight f4 [16, 32]
0	0xbcf6a3ba	-0.030107368
1	0x3b62ecaf	0.0034625938
2	0xbb12a3b7	-0.0022375414
3	0xbd0c4707	-0.034247424
4	0x3c5a87af	0.013338014
5	0xbb1bb0b0	-0.0023756437
6	0x3b87c6c5	0.004143568
7	0x3bb45c8d	0.005504197
8	0x3cc32fbf	0.023826478
9	0xbcaf8f73	-0.021430707
10	0xbccf0fb8	-0.02527605
11	0x3c3715bb	0.011174615
12	0x3c6930ed	0.014232856
13	0xbaa58eb1	-0.0012631026
14	0xbc4dcec2	-0.012561502
15	0x3c12c593	0.008958238
16	0x3cf7cc0f	0.03024867
17	0x3bfb4f10	0.007669337
18	0x3ba90c23	0.0051589175
19	0xbc0f3abd	-0.008742032
20	0xbc0a115b	-0.008426989
21	0xbc128d69	-0.008944848
22	0x3bfe3782	0.007758082
23	0xbc165c84	-0.009177331
24	0xbd383c2e	-0.044979267
25	0xbc281f04	-0.010261301
26	0x3ccee6da	0.025256563
27	0xbc3f6bcf	-0.011683418
28	0xbc9212c6	-0.017831217
29	0xbc5e0302	-0.013550522
30	0xbc5ab7cf	-0.013349487
31	0xbcb46140	-0.022019029
32	0xbc977ef4	-0.018493153
33	0xbc6ee3f7	-0.014580718
34	0x3be108d7	0.006867509
35	0xbc2834ae	-0.010266466
36	0xbc4aaf67	-0.012370921
37	0x3b43d6b1	0.0029882605
38	0x3c6509a2	0.013979347
39	0x3b98bd99	0.0046612737
40	0x3a58553a	0.0008252446
41	0x3cb9f1bd	0.022698278
42	0xbd5112e8	-0.05104342
43	0xbca855b0	-0.020548671
44	0x3a5a86a7	0.0008336105
45	0x3c2633a5	0.010144149
46	0x3ca6b634	0.020350553
47	0xbc951f9b	-0.018203547
48	0xbafd9ab5	-0.0019348474
49	0xbcd59d48	-0.026075974
50	0xbce6301d	-0.028099114
51	0x3c8cca2a	0.017186243
52	0x3af71357	0.0018850368
53	0x3be9745a	0.007124466
54	0xbc0783c8	-0.008271165
55	0x3cd31cc3	0.02577055
56	0x3ca172e1	0.019708099
57	0xbbab70a6	-0.0052319346
58	0x3ced0157	0.028931303
59	0x3c77c7cf	0.015123322
60	0xbc48c246	-0.01225335
61	0xbc259e00	-0.010108471
62	0xbc3a64cc	-0.011376571
63	0x3c25b697	0.010114334
64	0xbc16d8b7	-0.009206942
65	0x3c658cd2	0.014010625
66	0xbc355645	-0.011067932
67	0x3b035693	0.0020040616
68	0x3c81f125	0.015862057
69	0x3c0c5527	0.008565224
70	0xbc13a33b	-0.009011085
71	0xb8e1cdad	-0.00010767146
72	0xbc2e238b	-0.010628591
73	0x3ca59d38	0.02021657
74	0x3ba7f6e5	0.0051258677
75	0xbd59b6fa	-0.053153016
76	0xbb51fb47	-0.0032040642
77	0x3ce5793f	0.028011916
78	0xbc20465c	-0.0097824
79	0x3ca792b8	0.020455703
80	0xbbcb47d4	-0.006203631
81	0xbcd175ea	-0.025568921
82	0x3c421836	0.011846593
83	0xbcb0a2ca	-0.021561999
84	0xbc90dfb3	-0.017684793
85	0x3c85472f	0.016269295
86	0x3c08708e	0.008327616
87	0xbbf59b7d	-0.0074953423
88	0xbccddb23	-0.025128907
89	0xbcbaed44	-0.022818215
90	0xbc37ed2b	-0.011225979
91	0xbbecaa28	-0.0072224326
92	0xbbf6343d	-0.0075135515
93	0xbc675335	-0.014118959
94	0x3bea900d	0.0071582855
95	0x3cf1178b	0.029430171
96	0x3bf5d6c8	0.0075024106
97	0xbc8357b9	-0.01603304
98	0xbc44fcd7	-0.012023172
99	0x3b08c533	0.0020869493
100	0x3c085992	0.0083221365
101	0xbca8354b	-0.020533225
102	0xbd0504bb	-0.032475214
103	0x3cc17dc6	0.023619544
104	0x381cfebf	3.743055e-05
105	0x3d283816	0.041069113
106	0xbced74b7	-0.028986318
107	0x3b97277f	0.0046128626
108	0x3c88fd7c	0.016722433
109	0x3abbe46c	0.0014335043
110	0xbcaba161	-0.020950975
111	0x3cbb0551	0.022829683
112	0x3b6d3050	0.0036192127
113	0x3c2c3671	0.010511027
114	0x3c09781e	0.008390455
115	0xbc91afb4	-0.017783977
116	0xbb1f8361	-0.0024339783
117	0x3ca1ff73	0.019775128
118	0xbb841083	-0.0040302887
119	0xbc1cd4f7	-0.009572259
120	0x3c24dbfe	0.010062216
121	0x3b13e0ef	0.002256449
122	0x3c3c255e	0.011483518
123	0x3caf659a	0.021410752
124	0x3cadbeab	0.021209082
125	0x3cc38c0f	0.023870496
126	0x3c604ed2	0.013690667
127	0xbcdca9b0	-0.026936382
128	0xbcdab242	-0.026696328
129	0xbc3621f3	-0.011116493
130	0xbbdb3f83	-0.006690921
131	0x3c1645bf	0.009171902
132	0x3ca2a69a	0.019854832
133	0xb7f989b3	-2.9747234e-05
134	0x3ccd8c62	0.025091354
135	0xbc68a00a	-0.014198313
136	0x3cd7c40a	0.026338596
137	0x3c81d513	0.015848672
138	0x3c4375f0	0.011929974
139	0x3cf8d04a	0.030372757
140	0xbbbc68b4	-0.0057497863
141	0x3cc51bff	0.024061201
142	0x3b536acf	0.0032259708
143	0x3b51a523	0.0031989298
144	0xbb634600	-0.0034679174
145	0xbca6e89a	-0.020374585
146	0x3d059579	0.03261325
147	0xbc7a5fcf	-0.015281632
148	0xbbf6aee3	-0.0075281723
149	0x3b11c110	0.0022240318
150	0xba6a59d2	-0.0008939776
151	0x3aa989b5	0.0012934717
152	0x3ccf2eb3	0.025290823
153	0x3c720593	0.014771837
154	0x3ce8f465	0.028436849
155	0xbcfb14a2	-0.030649487
156	0x3c0cadff	0.008586406
157	0x3ca22941	0.019795062
158	0x39977ea5	0.00028895322
159	0x3c8f9242	0.017525796
160	0xbbc35548	-0.005961094
161	0xbc273737	-0.010206035
162	0x3c4ba305	0.012429004
163	0xb98504fc	-0.0002537145
164	0x3a5eb4b0	0.00084955525
165	0x379e60ae	1.8880088e-05
166	0xbc544918	-0.01295688
167	0x39db5d92	0.0004184065
168	0xbc5d4de2	-0.013507338
169	0x36c4eb09	5.868617e-06
170	0x3c96a76b	0.018390378
171	0xbcd573f0	-0.02605626
172	0x3b2dbac6	0.002650903
173	0x3cab78ca	0.02093162
174	0x3bc7a657	0.0060928273
175	0xbd02cb60	-0.031932235
176	0x3d13911b	0.036027055
177	0x3ceea6f0	0.029132336
178	0x3c01feaf	0.007934256
179	0xbce60f63	-0.028083509
180	0x3c44664c	0.01198728
181	0xbb472427	-0.0030386539
182	0xbbab7e04	-0.005233528
183	0x3d197011	0.03746039
184	0x3c71b15a	0.014751757
185	0xbc9585a1	-0.018252196
186	0x3b11610f	0.0022183096
187	0xbca91c66	-0.020643424
188	0xbc981ad3	-0.018567478
189	0x3cb2df40	0.02183497
190	0x3be6b483	0.0070405616
191	0xbca3f956	-0.020016354
192	0xbbae0cdb	-0.005311591
193	0x3cbdb08f	0.023155479
194	0x39b2375b	0.0003399205
195	0x3c20c0d3	0.009811598
196	0x3c96488f	0.018345146
197	0xbcf36bcd	-0.02971449
198	0x3d11a48c	0.035557315
199	0x3c9bd423	0.019022053
200	0x3b94c86f	0.004540495
201	0x3bffeb7a	0.0078100534
202	0x3d0b73ab	0.034045856
203	0x3c01c3af	0.00792019
204	0x3ced8af5	0.028996924
205	0x3c4d9d68	0.012549736
206	0xbc0115b0	-0.007878706
207	0x3bfbcfdf	0.0076846923
208	0x3be7d7f5	0.0070753046
209	0xbc09e343	-0.008416
210	0xbc9c15e2	-0.019053403
211	0x3cf6ba73	0.030118203
212	0x3c0f4dbb	0.00874656
213	0x3c375dec	0.011191826
214	0x3b839f23	0.0040167733
215	0x3c12c497	0.0089580035
216	0x3c0df194	0.008663554
217	0xbd2ca9a1	-0.04215396
218	0x3b450393	0.0030061945
219	0x3c34adaf	0.0110277375
220	0x3ba7716f	0.005109958
221	0xbbc35139	-0.00596061
222	0x3c05ae07	0.008159167
223	0xbc86c357	-0.016450567
224	0xbbfb8c28	-0.00767662
225	0x3cf7cbb7	0.030248506
226	0xbd1965cf	-0.037450608
227	0xbd003881	-0.031303886
228	0xbc097b10	-0.008391157
229	0x3bdee923	0.0068026944
230	0x3c438e0f	0.011935725
231	0x3c947ccb	0.018125912
232	0xbcc34da0	-0.023840725
233	0x3c93862f	0.01800832
234	0x3b73a9eb	0.0037180136
235	0xbb9e5bd3	-0.0048327236
236	0xbcd7d56a	-0.026346881
237	0xbc306b59	-0.010767781
238	0xbb4e0685	-0.0031436991
239	0x39a63567	0.00031701775
240	0xbbe2f9fd	-0.0069267736
241	0xbb381098	-0.0028086063
242	0xbc890669	-0.01672669
243	0xbc031623	-0.008000883
244	0x3af321aa	0.0018549461
245	0xbcd64af8	-0.026158795
246	0x3d09b073	0.03361554
247	0xbb1b9a63	-0.0023743145
248	0x3c7fd790	0.015615359
249	0xbb1d8abe	-0.0024038996
250	0x3b49f991	0.003081892
251	0xbc869553	-0.016428625
252	0x3c48a7c9	0.012247034
253	0x3cd29868	0.025707439
254	0xbcbc6453	-0.022997057
255	0xbc6fc9fb	-0.014635558

mlp_inp.mlp.6.bias f4 [16]
0	0x358637bd	1e-06
1	0x358637bd	1e-06
2	0x358637bd	1e-06
3	0x358637bd	1e-06
4	0x358637bd	1e-06
5	0x358637bd	1e-06
6	0x358637bd	1e-06
7	0x358637bd	1e-06
8	0x358637bd	1e-06
9	0x358637bd	1e-06
10	0x358637bd	1e-06
11	0x358637bd	1e-06
12	0x358637bd	1e-06
13	0x358637bd	1e-06
14	0x358637bd	1e-06
15	0x358637bd	1e-06

trs_encoder_layer00.self_attn.in_proj_weight f4 [48, 16]
0	0xbe668aa9	-0.22513832
1	0xbe962fbd	-0.29333296
2	0x3e125bad	0.14292784
3	0xbe66b35a	-0.22529355
4	0x3dc9bfd6	0.09851043
5	0xbdc28023	-0.094970964
6	0x3e4a1216	0.19733462
7	0xbe31aae5	-0.17350347
8	0x3e60ebdc	0.21964973
9	0xbdfe00c5	-0.124024905
10	0xbe338f0f	-0.17535041
11	0x3cfda896	0.030964177
12	0xbe9a2f4d	-0.30114213
13	0x3d6a9607	0.057271983
14	0x3e31d5b4	0.17366678
15	0x3e41a9af	0.18912385
16	0x3cd3bc74	0.025846697
17	0xbddd1991	-0.10795892
18	0xbe2d245c	-0.16908401
19	0x3e078687	0.13234912
20	0xbe8e6e86	-0.27818698
21	0x3e3bba41	0.18332769
22	0x3c632534	0.01386385
23	0x3dc8fe59	0.09814138
24	0xbe2311e1	-0.15924789
25	0xbe8de4e5	-0.27713695
26	0xbdd9199b	-0.10600587
27	0x3e5a7965	0.21335371
28	0xbd577b16	-0.05260762
29	0xbcf38f3a	-0.029731382
30	0xbe130e70	-0.14360976
31	0x3e63a826	0.22232112
32	0xbe2771b5	-0.1635197
33	0xbd9ab772	-0.07554521
34	0xbe1e0860	-0.15432882
35	0x3e541e3e	0.20714661
36	0xbe1a1379	-0.1504649
37	0xbc476117	-0.012169144
38	0xbe79c919	-0.24393119
39	0xbe95e813	-0.2927862
40	0x3d1db37f	0.03850126
41	0x3e602f6f	0.21893094
42	0x3e948db6	0.29014367
43	0xbe79ad55	-0.24382527
44	0xbd6b7758	-0.057486862
45	0xbe9bba6b	-0.30415663
46	0xbe4203f6	-0.18946823
47	0x3d564216	0.05230912
48	0xbd9d3b7e	-0.07677363
49	0xbe9c29c3	-0.30500612
50	0x3e95a64e	0.29228443
51	0x3d08f7df	0.033439513
52	0xbe5aa438	-0.21351707
53	0xbc0103b2	-0.007874416
54	0x3dffcc2f	0.12490117
55	0x3e2fa483	0.171526
56	0xbe899d27	-0.2687771
57	0xbd8ddcc5	-0.06926874
58	0xbe6d2538	-0.23158729
59	0xbe785e03	-0.24254613
60	0xbe9467dd	-0.2898549
61	0xbe3f5090	-0.18683076
62	0xbe1ab30e	-0.15107366
63	0x3ddad099	0.10684318
64	0xbd5e9fab	-0.05435149
65	0xbe90a5d8	-0.2825153
66	0xbe493708	-0.19649899
67	0xbe8180f1	-0.25293687
68	0x3e5d97f2	0.21639994
69	0x3b0c5ccb	0.0021417614
70	0x3d95dd22	0.07317568
71	0x3e0f45a1	0.13991405
72	0x3d200c94	0.039074495
73	0x3e81dd4a	0.25364143
74	0x3c418f58	0.011813961
75	0x3e78712b	0.2426192
76	0xbd8bb28d	-0.06821165
77	0xbe940e74	-0.28917277
78	0x3c65e7e2	0.014032336
79	0xbdebf5a5	-0.11521462
80	0xbb9aa6cc	-0.004719591
81	0xbdc3df6e	-0.095641
82	0xbe83becd	-0.25731507
83	0x3e20c911	0.15701701
84	0x3ca3e8c2	0.020008449
85	0x3e90272d	0.2815489
86	0xbe0e972e	-0.13924858
87	0x3e0407c1	0.12893583
88	0xbe82af76	-0.2552449
89	0x3e9966e4	0.29961312
90	0xbc3de2e4	-0.0115897395
91	0x3e2f7a9c	0.17136616
92	0x3e7f6214	0.24939758
93	0x3ae5cfd9	0.0017533257
94	0xbe8e410e	-0.27784008
95	0x3e9715e2	0.29508883
96	0xbd94ddb8	-0.07268852
97	0x3e8507fb	0.2598265
98	0xbdc5a93c	-0.096514195
99	0x3e479010	0.19488549
100	0x3e74f986	0.2392331
101	0xbe86c230	-0.26320028
102	0x3e7f00db	0.2490267
103	0xbe8fd4c3	-0.28092012
104	0xbe86ca35	-0.26326147
105	0x3e96bd12	0.29441124
106	0xbe4399fe	-0.19101712
107	0x3e160fe0	0.14654493
108	0xbdde1726	-0.10844259
109	0x3c800654	0.015628017
110	0x3db5a1bf	0.08868741
111	0xbb3d114f	-0.0028849428
112	0x3e921413	0.2853094
113	0xbe99a61f	-0.30009553
114	0x3e5219b2	0.20517614
115	0x3bf6592d	0.007517955
116	0xbdeb07c7	-0.11476093
117	0x3e9025d3	0.28153858
118	0x3e4693fc	0.19392389
119	0xbdc014c8	-0.09378964
120	0x3be4d2f0	0.0069831535
121	0x3d5874f9	0.05284593
122	0x3e649b1e	0.22324798
123	0xbde5c01e	-0.11218284
124	0xbd860606	-0.06544118
125	0x3e8a300e	0.26989788
126	0xbd3d4c22	-0.046215184
127	0x3e692ee4	0.22771794
128	0xbe60b805	-0.21945198
129	0xbe62e013	-0.2215579
130	0xbe87bca5	-0.26511112
131	0xbe55c81c	-0.20877117
132	0x3d75a671	0.059973184
133	0xbe9a9251	-0.30189756
134	0xbe2610bc	-0.16217321
135	0x3e9abce0	0.30222225
136	0xbe495df4	-0.19664747
137	0xbd8c5477	-0.06852048
138	0x3c8764e5	0.016527602
139	0x3e0877be	0.13326928
140	0xbdcc3892	-0.099717274
141	0xbe01c69f	-0.12673424
142	0xbe70bef2	-0.2351034
143	0x3d1a0fbc	0.03761266
144	0x3e3d7c14	0.18504363
145	0xbdd63019	-0.10458393
146	0xbe570642	-0.20998481
147	0x3d94c4f0	0.07264125
148	0x3da10565	0.07862357
149	0x3e94f89c	0.29095924
150	0x3e3aca08	0.18241131
151	0x3e474127	0.19458447
152	0xbe1bbd30	-0.15208888
153	0x3e178ec0	0.14800549
154	0x3cee3a19	0.029080437
155	0x3d5b1cc8	0.053494245
156	0x3e6a9783	0.2290936
157	0xbe226aef	-0.15861104
158	0xbdb9c544	-0.090708286
159	0x3d185fd2	0.037200756
160	0x3e1521cc	0.14563674
161	0x3e7a56e7	0.24447213
162	0x3d70ad79	0.058759186
163	0xbdb0d514	-0.086343914
164	0xbdb05a16	-0.086109325
165	0x3d019afe	0.031641953
166	0x3e5a0000	0.21289062
167	0xbe7ffbda	-0.24998417
168	0x3e2f0065	0.17089994
169	0x3e8abfd7	0.27099487
170	0x3d889d12	0.06670584
171	0x3e2a7d73	0.16649418
172	0x3e4ec3c3	0.20191865
173	0x3e988644	0.29789937
174	0xbcea0057	-0.028564615
175	0x3dd30327	0.10303336
176	0x3e5df0a5	0.2167383
177	0x3d5ae78b	0.053443473
178	0x3c47ab09	0.012186774
179	0x3e28e03c	0.16491789
180	0xbb1ab97a	-0.0023609088
181	0x3d047800	0.032341003
182	0xbe87ec3a	-0.26547414
183	0xbdbb2b50	-0.091391206
184	0xbd0af7ee	-0.03392785
185	0xbdd5ee8e	-0.10445891
186	0x3e6ccba4	0.23124558
187	0x3d96e95b	0.07368728
188	0xbe601135	-0.21881564
189	0xbe96ac04	-0.29428113
190	0x3e20815a	0.15674344
191	0xbdb2e12d	-0.08734355
192	0x3d8bd656	0.06827991
193	0xbe8e390f	-0.27777907
194	0x3d4ea7b3	0.0504529
195	0xbdbea20c	-0.09308252
196	0xbe4b7b2b	-0.19871204
197	0x3d746293	0.05966432
198	0xbe0f3f13	-0.13988905
199	0x3e5b900f	0.21441673
200	0xbe10a9a5	-0.14127214
201	0x3e8480be	0.25879472
202	0x3e8434f9	0.25821665
203	0xbc0db0d0	-0.008648112
204	0x3e1ebe25	0.15502222
205	0x3d78d2ad	0.06074779
206	0xbe17d86b	-0.1482865
207	0x3e838d6c	0.25693834
208	0x3e391953	0.18076067
209	0xbe9110a6	-0.28333014
210	0xbe8a58f9	-0.27021006
211	0xbe7f1166	-0.2490898
212	0x3e96ee5d	0.29478732
213	0x3d93eb95	0.07222668
214	0x3e129034	0.14312822
215	0xbe6ec9fa	-0.23319235
216	0xbcdadeb4	-0.026717521
217	0xbb962f80	-0.004583299
218	0xbd27f060	-0.041000724
219	0x3e13109f	0.14361809
220	0x3dc287c1	0.09498549
221	0xbd21ed19	-0.039532755
222	0xbd8096bb	-0.062787496
223	0x3e5338ae	0.2062709
224	0xbe203e89	-0.15648855
225	0xbdc48c37	-0.09597056
226	0x39944a32	0.0002828404
227	0x3dd3940a	0.103309706
228	0xbd12aecb	-0.035811227
229	0xbe53aaf9	-0.2067069
230	0x3e762bbf	0.24040125
231	0xbe2fe026	-0.1717535
232	0xbe75d1b8	-0.24005783
233	0xbd91e8d8	-0.071244895
234	0xbe3551c6	-0.17706975
235	0x3e13808d	0.14404507
236	0xbc88e600	-0.016711235
237	0x3de1f0b9	0.11032242
238	0x3e14dc1a	0.14537087
239	0x3d1a5c2a	0.03768555
240	0x3e303503	0.17207722
241	0x3d430838	0.04761526
242	0xbb9379fd	-0.004500626
243	0xbd67fa15	-0.05663498
244	0x3df9dfa4	0.12200859
245	0x3e93f0f9	0.28894785
246	0xbe4fa8bc	-0.20279211
247	0xbe1ac18b	-0.15112893
248	0x3dbb6c8d	0.09151564
249	0xbd4ac2e9	-0.049502287
250	0xbe5e6c1d	-0.2172093
251	0xbe95c1cc	-0.29249418
252	0x3e93b36e	0.2884783
253	0xbe59ef15	-0.21282609
254	0xbe115856	-0.14193854
255	0xbe868a24	-0.26277268

trs_encoder_layer00.self_attn.in_proj_bias f4 [48]
0	0x00000000	0.0
1	0x00000000	0.0
2	0x00000000	0.0
3	0x00000000	0.0
4	0x00000000	0.0
5	0x00000000	0.0
6	0x00000000	0.0
7	0x00000000	0.0
8	0x00000000	0.0
9	0x00000000	0.0
10	0x00000000	0.0
11	0x00000000	0.0
12	0x00000000	0.0
13	0x00000000	0.0
14	0x00000000	0.0
15	0x00000000	0.0
16	0x00000000	0.0
17	0x00000000	0.0
18	0x00000000	0.0
19	0x00000000	0.0
20	0x00000000	0.0
21	0x00000000	0.0
22	0x00000000	0.0
23	0x00000000	0.0
24	0x00000000	0.0
25	0x00000000	0.0
26	0x00000000	0.0
27	0x00000000	0.0
28	0x00000000	0.0
29	0x00000000	0.0
30	0x00000000	0.0
31	0x00000000	0.0
32	0x00000000	0.0
33	0x00000000	0.0
34	0x00000000	0.0
35	0x00000000	0.0
36	0x00000000	0.0
37	0x00000000	0.0
38	0x00000000	0.0
39	0x00000000	0.0
40	0x00000000	0.0
41	0x00000000	0.0
42	0x00000000	0.0
43	0x00000000	0.0
44	0x00000000	0.0
45	0x00000000	0.0
46	0x00000000	0.0
47	0x00000000	0.0

trs_encoder_layer00.self_attn.out_proj.weight f4 [16, 16]
0	0xbdf3c140	-0.11902094
1	0x3d8a7c0c	0.06761941
2	0xbe0d5f6e	-0.13805935
3	0x3dcd4220	0.10022378
4	0xbbbc3800	-0.0057439804
5	0x3d734dc0	0.05940032
6	0x3e4eb9be	0.20188043
7	0xbd25a518	-0.04044065
8	0xbdd2a1e8	-0.102847874
9	0xbe0fbbd0	-0.14036489
10	0x3df8d768	0.121504605
11	0xbd0fe638	-0.035131663
12	0xbcd78cc0	-0.026312232
13	0xbad06f00	-0.0015902221
14	0x3e1ed028	0.15509093
15	0xbd7f45d8	-0.062322468
16	0x3dc5fc98	0.09667319
17	0xbdca29dc	-0.09871265
18	0x3dabc804	0.08387759
19	0xbdca65fc	-0.09882733
20	0xbe347be4	-0.17625386
21	0xbe3e73a0	-0.18598795
22	0x3e43f3fc	0.19136041
23	0x3e2e8760	0.17043829
24	0xbde4aad0	-0.111653924
25	0x3e695b82	0.22788814
26	0x3e160112	0.14648846
27	0xbbbb5c40	-0.005717784
28	0x3e230fa2	0.15923932
29	0xbdae0b84	-0.0849829
30	0xbe32233e	-0.17396256
31	0xbde8e8c8	-0.113725245
32	0x3d2621b0	0.04055947
33	0xbdba0f64	-0.09084967
34	0xba720c00	-0.00092333555
35	0x3e047462	0.12935022
36	0xbe22ad98	-0.15886533
37	0x3d6cb998	0.057794183
38	0xbe105a96	-0.14097056
39	0x3e616282	0.22010234
40	0xbdf3c160	-0.11902118
41	0xbdf6c850	-0.12049925
42	0xbe26cb36	-0.16288456
43	0xbdda8470	-0.10669792
44	0xbe5c7538	-0.2152909
45	0xbdece0c4	-0.11566308
46	0xbcf96130	-0.03044185
47	0xbd983b84	-0.07433227
48	0xbe029992	-0.12753895
49	0xbe14ee4a	-0.14544025
50	0xbe1e1380	-0.15437126
51	0xbe56117a	-0.20905104
52	0xbe48c1e6	-0.19605216
53	0xbe03849a	-0.12843552
54	0x3e2b4850	0.16726804
55	0xbd05d418	-0.03267297
56	0xbc3e2180	-0.011604667
57	0x3e069d34	0.13145906
58	0xbe6b25e8	-0.22963679
59	0x3e710e70	0.23540664
60	0xbd7fc588	-0.06244424
61	0xbde21fb4	-0.11041203
62	0xbe75e0da	-0.24011555
63	0x3de9b6f8	0.11411852
64	0xbdc0be64	-0.09411314
65	0x3e3ae480	0.18251228
66	0xbe2e13aa	-0.16999689
67	0x3e2de834	0.1698311
68	0xbd95e924	-0.07319859
69	0x3cad9a20	0.021191657
70	0x3db46eac	0.088101715
71	0xbe077f0c	-0.13232058
72	0x3e348554	0.17628986
73	0x3dc119cc	0.094287485
74	0x3c6c5040	0.01442343
75	0x3e1c75e0	0.1527934
76	0x3c332100	0.010933161
77	0xbe631a94	-0.22178108
78	0x3c373680	0.011182427
79	0xbba1b8c0	-0.004935354
80	0x3d964070	0.07336509
81	0x3df19e50	0.11797774
82	0xbe5eb508	-0.21748745
83	0xbe765dc6	-0.24059209
84	0x3d031a80	0.032007694
85	0x3dfba8e0	0.1228807
86	0x3ce39540	0.027781129
87	0xbe316502	-0.17323688
88	0x3dae6c94	0.085168034
89	0xbba68000	-0.0050811768
90	0x3e39cd92	0.18144825
91	0x3e264f22	0.16241124
92	0x3d8ff660	0.07029414
93	0xbe648e26	-0.2231985
94	0xbd3a22b0	-0.045443237
95	0x3ca0ac90	0.019613534
96	0x3e4636da	0.19356862
97	0xbe6b3546	-0.22969541
98	0x3cb2d050	0.021827847
99	0xbe7555d0	-0.23958516
100	0x3d9dd078	0.07705778
101	0xbe1f4f3a	-0.15557566
102	0xbd8c6770	-0.06855667
103	0x3dc148fc	0.09437749
104	0x3dff4040	0.124634266
105	0x3e437870	0.19088912
106	0xbd816284	-0.063176185
107	0x3e2be63e	0.16787049
108	0x3d595038	0.05305502
109	0x3d2b4d20	0.0418216
110	0x3db64fe0	0.08901954
111	0xbd386538	-0.045018405
112	0x3df640b4	0.1202406
113	0x3e76237e	0.24036977
114	0x3e7247ac	0.23660153
115	0x3d64bab0	0.0558421
116	0xbd4a8178	-0.049439877
117	0xbddd2fe8	-0.10800153
118	0x3d5277a0	0.051383615
119	0xbdc0b1c4	-0.09408906
120	0xbe14ac5c	-0.14518875
121	0x3e5e9b5c	0.21738952
122	0xbe63fe66	-0.22265014
123	0xbc455b20	-0.012045652
124	0x3e75970a	0.23983398
125	0x3e7e1054	0.24810916
126	0xbd428d18	-0.04749784
127	0xbe6e009e	-0.23242423
128	0xbe1ff358	-0.15620172
129	0x3d05af00	0.032637596
130	0x3dc30a10	0.09523404
131	0x3c1e8500	0.009675264
132	0x3e26d796	0.16293177
133	0x3e27d30c	0.16389102
134	0x3e63f96a	0.22263113
135	0xbc228cc0	-0.009921253
136	0xbe0f2a1c	-0.13980907
137	0x3e677f78	0.22607219
138	0xbe7de7a8	-0.24795401
139	0x3e3f60c4	0.18689257
140	0xbe759066	-0.23980865
141	0xbda47294	-0.080296665
142	0x3ad38a00	0.001613915
143	0xbe12e2e2	-0.14344361
144	0xbe456c7a	-0.19279662
145	0xbcd48d00	-0.02594614
146	0xbd81e09c	-0.06341669
147	0x3e4b4658	0.19851053
148	0x3deed6a0	0.1166203
149	0x3cf17400	0.029474258
150	0xbd4a0a50	-0.04932624
151	0xbe234ac0	-0.15946484
152	0xbe69327e	-0.22773167
153	0x3e7f0994	0.24905998
154	0xbd9af598	-0.075663745
155	0x3dcc2d18	0.099695385
156	0x3b9a7e40	0.004714757
157	0x3e6bd5f0	0.2303083
158	0xbde9a59c	-0.114085406
159	0xbe6a0e12	-0.2285693
160	0x3e52c770	0.20583892
161	0xbcb10fe0	-0.021614015
162	0xbd5aa378	-0.053378552
163	0xbe3ec26a	-0.1862885
164	0x3e322b7e	0.17399403
165	0xbe45f2b4	-0.19330865
166	0x3dc7a6d8	0.0974862
167	0xbd6c0ff8	-0.057632416
168	0x3d314348	0.043277055
169	0x3e0a227a	0.13489714
170	0x3b514a00	0.0031934977
171	0xbe22c6d4	-0.1589616
172	0x3cf571f0	0.029961556
173	0xbe662534	-0.2247513
174	0xbdd58b54	-0.10426965
175	0x3e570274	0.2099703
176	0xbd5e0260	-0.054201484
177	0x3c5d5220	0.01350835
178	0x3ce11150	0.027474076
179	0x3ac77000	0.0015215874
180	0xbdeb059c	-0.11475679
181	0xbe79e834	-0.24404985
182	0xbe1c0214	-0.15235168
183	0x3daee150	0.08539069
184	0x3d701088	0.058609515
185	0x3cd69600	0.026194572
186	0xbe2c6f88	-0.16839421
187	0xbe4a3512	-0.19746807
188	0x3d0bcf80	0.034133434
189	0xbe458640	-0.19289494
190	0xbe50f9ca	-0.20407787
191	0x3d20e990	0.039285243
192	0x3e268c26	0.162644
193	0x3e625e1e	0.22106215
194	0x3e63d080	0.22247505
195	0xbe5ebd96	-0.21752009
196	0xbd837b7c	-0.06420037
197	0x3cd72ee0	0.026267469
198	0x3d70cbf8	0.05878827
199	0x3e0e6ffe	0.13909909
200	0xbd968208	-0.0734902
201	0x3d4d90e8	0.05018702
202	0xbe18c41a	-0.14918557
203	0xbd83a18c	-0.06427297
204	0xbd9e0334	-0.07715455
205	0x3e4460e8	0.19177592
206	0x3de24178	0.110476434
207	0xbe2fb8b8	-0.17160308
208	0x3e03859e	0.1284394
209	0xbdde269c	-0.10847208
210	0x3e75f732	0.24020079
211	0x3d4cae78	0.049971074
212	0xbe1270d0	-0.14300847
213	0xbe503ae8	-0.20334971
214	0xbdb6e650	-0.089306474
215	0xbe5ef7a4	-0.21774155
216	0xbe16398e	-0.14670393
217	0xbdb03c88	-0.086052954
218	0x3d2676f0	0.04064077
219	0x3e0b7fbe	0.13622949
220	0xbdcdd9e0	-0.10051322
221	0xbe30eef0	-0.17278647
222	0xbd0d20e8	-0.03445521
223	0x3e7c9368	0.24665606
224	0xbda332c0	-0.07968664
225	0x3e4b54e6	0.19856605
226	0x3e10c322	0.14136937
227	0xbdcff104	-0.10153392
228	0x3d492de8	0.049116045
229	0x3e1533b4	0.14570504
230	0xbdfa22e8	-0.12213689
231	0x3d4b0648	0.049566537
232	0x3dbf5e84	0.09344199
233	0xbe4511ce	-0.19245073
234	0x3e21a74a	0.15786472
235	0x3e2613d0	0.16218495
236	0x3df45264	0.11929777
237	0xbe32437c	-0.17408556
238	0x3c12a200	0.008949757
239	0x3d0a7788	0.0338054
240	0x3e16cc02	0.1472626
241	0xbe10ee0c	-0.14153308
242	0x3e63b598	0.22237241
243	0xbe7bea4a	-0.24601093
244	0x3e1eb7f2	0.15499857
245	0x3dc6cecc	0.09707412
246	0xbe242e74	-0.16033345
247	0x3d72a870	0.059242666
248	0xbe6d48c2	-0.23172286
249	0x3e7e6c54	0.24846011
250	0xbde8c6dc	-0.113660544
251	0x3cc4cd40	0.024023652
252	0xbc871fb0	-0.016494602
253	0x3de3c170	0.1112088
254	0x3e72769c	0.23678058
255	0xbd511568	-0.051045805

trs_encoder_layer00.self_attn.out_proj.bias f4 [16]
0	0x00000000	0.0
1	0x00000000	0.0
2	0x00000000	0.0
3	0x00000000	0.0
4	0x00000000	0.0
5	0x00000000	0.0
6	0x00000000	0.0
7	0x00000000	0.0
8	0x00000000	0.0
9	0x00000000	0.0
10	0x00000000	0.0
11	0x00000000	0.0
12	0x00000000	0.0
13	0x00000000	0.0
14	0x00000000	0.0
15	0x00000000	0.0

trs_encoder_layer00.linear1.weight f4 [32, 16]
0	0xbde07bdc	-0.10961124
1	0xbdc719d0	-0.0972172
2	0xbdda7548	-0.10666901
3	0x3cd3f640	0.025874257
4	0xbc6ee240	-0.014580309
5	0x3e679960	0.22617102
6	0xbd632b08	-0.05546096
7	0x3c9d72b0	0.019219726
8	0xbe406bee	-0.18791172
9	0x3dc3eb8c	0.095664114
10	0xbe4877fe	-0.19577023
11	0xbe2e8b4c	-0.17045325
12	0x3d8f2298	0.0698902
13	0xbdb7c77c	-0.089735955
14	0xbd6571a0	-0.056016564
15	0x3e2b9f52	0.16759995
16	0x3e7c9358	0.24665582
17	0x3e69bf92	0.22826985
18	0xbc971480	-0.018442392
19	0x3df18fdc	0.11795017
20	0xbdfd7564	-0.12375906
21	0xbe64c550	-0.22340894
22	0xbc2bee40	-0.010493815
23	0x3e335e76	0.17516503
24	0xbd8332fc	-0.06406209
25	0xbe7f2c12	-0.24919155
26	0x3df42b80	0.119223595
27	0xbe58126e	-0.2110078
28	0xbdf3fab4	-0.11913052
29	0xbe02bea8	-0.12768042
30	0xbdc723f4	-0.097236544
31	0x3ddb50f4	0.107088
32	0x3dc7388c	0.09727582
33	0xbdccfcb8	-0.1000914
34	0x3caf2b80	0.021383047
35	0xbdd4fc60	-0.10399699
36	0xbe5f0ebc	-0.21782964
37	0x3e6cb4ec	0.23115891
38	0xbe2413ba	-0.1602315
39	0x3e65786e	0.22409222
40	0x3d8db3cc	0.06919059
41	0xbe32770c	-0.17428225
42	0xbe15e988	-0.14639866
43	0x3da80bf4	0.08205405
44	0xbe1a8614	-0.15090209
45	0xbe53fd60	-0.20702124
46	0x3e5831e2	0.21112779
47	0x3e49bfa8	0.19702017
48	0x3d8bdf20	0.06829667
49	0x3e2fc276	0.17164025
50	0x3d9050dc	0.07046673
51	0x3e3b6838	0.18301475
52	0xbd3fa5d8	-0.04678902
53	0x3d9b8efc	0.075956315
54	0xbe182666	-0.14858398
55	0xbe171e18	-0.14757574
56	0x3c8f2ab0	0.01747641
57	0xbe19b536	-0.15010533
58	0xbdf31d08	-0.11870772
59	0x3dd649cc	0.104632944
60	0xbdd0ff98	-0.10205001
61	0xbd33e260	-0.04391706
62	0xbe3e21e0	-0.1856761
63	0x3d51e1a0	0.051240563
64	0xbe39d8b6	-0.18149075
65	0xbdba6524	-0.09101322
66	0xbe015738	-0.12630928
67	0x3d7d2708	0.0618048
68	0x3e1fe27e	0.15613744
69	0x3e2c50e0	0.16827726
70	0x3d70eb80	0.05881834
71	0x3e2b28bc	0.16714758
72	0x3dc05b30	0.09392393
73	0x3e575e4e	0.21032068
74	0x3e3dd6e6	0.18539008
75	0x3d733dd0	0.05938512
76	0x3e7b8f2e	0.24566337
77	0x3a891b00	0.0010460317
78	0xbe5128f6	-0.20425782
79	0xbdb97260	-0.090550184
80	0xbe390298	-0.18067396
81	0xbdfc34ac	-0.12314734
82	0xbe5f0a58	-0.2178129
83	0x3e79461e	0.24343154
84	0xbc0e1de0	-0.008674115
85	0xbd98c504	-0.07459453
86	0xbe7a3612	-0.24434689
87	0x3e0f5d3a	0.14000407
88	0xbd469950	-0.048486054
89	0xbd8d4418	-0.068977535
90	0x3e3a619a	0.18201295
91	0x3e31ebe8	0.17375147
92	0xbca29be0	-0.019849718
93	0x3d82015c	0.063479155
94	0xbe61dbf0	-0.22056556
95	0x3e038230	0.12842631
96	0xbe2140b2	-0.15747336
97	0x3e36d5ae	0.1785495
98	0x3d366b38	0.044535846
99	0x3dc1b3f8	0.094581544
100	0xbd12a5f0	-0.03580278
101	0x3e2d2d7c	0.16911882
102	0x3df655b8	0.12028068
103	0x3e6bfefe	0.2304649
104	0x3d4f5640	0.050619364
105	0x3e2ea3f6	0.17054734
106	0xbdf8e7ac	-0.12153563
107	0x3e771e58	0.24132669
108	0x3d86760c	0.065654844
109	0x3df14434	0.11780587
110	0x3e2b4982	0.1672726
111	0xbe686e7c	-0.22698396
112	0x3e5aeb16	0.2137874
113	0x3e2e7ba4	0.17039353
114	0xbe65a246	-0.22425184
115	0x3e1c6040	0.15271091
116	0x3e16419a	0.14673463
117	0xbdc17ca4	-0.094476014
118	0x3e572b02	0.210125
119	0xbd6a1de0	-0.057157397
120	0x3d3b3828	0.04570785
121	0x3e653820	0.22384691
122	0x3e25f4a2	0.16206601
123	0xbd348690	-0.04407364
124	0x3e2012a8	0.15632117
125	0x3dc29940	0.09501886
126	0x3d926ad4	0.07149282
127	0xbe7cd82e	-0.24691841
128	0x3d4a5b70	0.049403608
129	0xbe1c1bf2	-0.15245035
130	0xbc87d380	-0.016580343
131	0x3debc220	0.11511636
132	0xbd6bb4b0	-0.057545364
133	0xbde83d54	-0.113398224
134	0x3dbd98bc	0.092576474
135	0xbe5a25be	-0.2130346
136	0xbe060600	-0.13088226
137	0x3decd9a8	0.11564952
138	0x3dffff0c	0.12499818
139	0xbd97fa24	-0.074207574
140	0x3e2098c0	0.1568327
141	0x3dfc3570	0.1231488
142	0xbc25bdc0	-0.010116041
143	0xbbafec80	-0.005368769
144	0xbd9d8df8	-0.07693094
145	0xbde110a0	-0.10989499
146	0xbd899e08	-0.06719595
147	0xbe6e683a	-0.23281947
148	0x3c612dc0	0.013743818
149	0xbca77010	-0.020439178
150	0xbe0cf9f4	-0.13767225
151	0x3e529ccc	0.20567626
152	0x3e101ec6	0.14074239
153	0x3c9fac10	0.019491225
154	0x3e6fefa2	0.23431256
155	0x3ddf04bc	0.10889575
156	0x3d813e8c	0.06310758
157	0x3da58b40	0.080832005
158	0xbdeed128	-0.11660987
159	0x3e16b196	0.14716181
160	0xbd5a7ed8	-0.053343624
161	0xbd8310d4	-0.06399694
162	0xbde00790	-0.109389424
163	0xbdc8a89c	-0.09797785
164	0x3d343110	0.043992102
165	0x3d963e40	0.07336092
166	0xbdc863cc	-0.0978466
167	0x3d1efef0	0.038817346
168	0xbe3fc118	-0.18726003
169	0xbe729fb8	-0.2369374
170	0x3d67f820	0.056633115
171	0xbe5e472a	-0.21706834
172	0xbe2a0950	-0.16605115
173	0xbe00eb54	-0.1258977
174	0x3e0d0522	0.1377149
175	0x3e101756	0.14071402
176	0x3d23e470	0.040012777
177	0x3e4a5be6	0.19761619
178	0xbb839800	-0.0040159225
179	0xbe6e3de2	-0.23265794
180	0x3e0b8c1e	0.13627669
181	0x3e50744c	0.20356864
182	0xbe00a636	-0.12563404
183	0xbe1c416c	-0.15259331
184	0xbe59f14e	-0.21283457
185	0x3e481bc6	0.19541845
186	0x3ddfa604	0.10920337
187	0xbdb4ef7c	-0.088347405
188	0x3bf47780	0.0074605346
189	0xbe77af1a	-0.2418789
190	0x3d16b9b0	0.03679818
191	0xbe46bba2	-0.19407514
192	0xbe14e16c	-0.14539117
193	0xbdcaa2d4	-0.09894338
194	0x3e5a256e	0.21303341
195	0x3de69f18	0.112608135
196	0x3cdb3970	0.026760787
197	0x3d5d5d38	0.05404398
198	0x3dafc100	0.08581734
199	0x3d8029a8	0.06257945
200	0xbe672098	-0.22571027
201	0x3decbca0	0.11559415
202	0xbe5cc072	-0.21557787
203	0x3df22d88	0.11825091
204	0xbe50883e	-0.20364472
205	0xbe7b9882	-0.24569896
206	0x3e7b3ed6	0.24535689
207	0xbe5e1bc8	-0.21690285
208	0xbe4d00e6	-0.20019874
209	0x3d43c538	0.047795504
210	0x3dc4451c	0.09583494
211	0xbda73684	-0.08164695
212	0x3e5a3f22	0.21313146
213	0x3de2c264	0.11072233
214	0xbcef8480	-0.029237986
215	0x3d987cec	0.07445702
216	0x3d1d1e90	0.038359225
217	0xbe273d68	-0.16332018
218	0xbdb47aa4	-0.08812454
219	0x3d1eef58	0.038802475
220	0xbe059cbc	-0.1304807
221	0xbe29eca4	-0.16594177
222	0x3e59976c	0.21249169
223	0xbe41115a	-0.18854275
224	0xbe18a7f8	-0.14907825
225	0xbc5d6c00	-0.013514519
226	0xbe477fb0	-0.19482303
227	0x3dc24cd0	0.09487307
228	0x3d073548	0.033009797
229	0xbe68753c	-0.22700971
230	0xbd7133a0	-0.058887124
231	0x3dceb820	0.10093713
232	0x3e4d4b2c	0.20048207
233	0x3d8a4c18	0.06752795
234	0xbe160666	-0.14650878
235	0xbe640182	-0.222662
236	0xbccaee10	-0.02477172
237	0x3e1ae750	0.15127301
238	0x3d238b00	0.039927483
239	0xbe44490c	-0.1916849
240	0xbe0a3890	-0.1349814
241	0xbdcfff64	-0.10156134
242	0xbd272cc0	-0.04081416
243	0x3e69ad50	0.2282002
244	0xbe3c6a14	-0.1839984
245	0xbce99e60	-0.028517902
246	0xbe7ce4e8	-0.24696696
247	0xbe146c50	-0.14494443
248	0x3e6ee5c8	0.23329842
249	0xb9828800	-0.0002489686
250	0x3df2bf44	0.11852887
251	0xbdb8382c	-0.08995089
252	0xbe472832	-0.19448927
253	0xbe116d74	-0.1420191
254	0xbe42e3e8	-0.19032252
255	0xbe074e46	-0.13213453

trs_encoder_layer00.linear1.bias f4 [32]
0	0xbe0f68c4	-0.14004809
1	0x3d76c818	0.060249418
2	0xbe33a96e	-0.17545101
3	0x3e7e0baa	0.24809137
4	0x3dd64ec4	0.10464242
5	0x3e6bda24	0.23032433
6	0xbdae8aec	-0.08522591
7	0x3e328382	0.17432979
8	0xbe6a2ffa	-0.22869864
9	0x3bc98740	0.0061501563
10	0xbe0111e0	-0.12604475
11	0x3dfef11c	0.12448332
12	0x3c4c2380	0.012459636
13	0xbe19f660	-0.15035391
14	0x3e2e1558	0.1700033
15	0x3db33c44	0.08751729
16	0x3e7b694e	0.2455189
17	0xbe1ce088	-0.15320027
18	0x3c332fc0	0.010936677
19	0xbc118660	-0.008882135
20	0x3e4cf336	0.20014653
21	0xbe3ee9ba	-0.18643847
22	0xbe7f55c0	-0.24935055
23	0xbcb3acc0	-0.02193296
24	0xbd2abf50	-0.041686356
25	0x3e140df4	0.14458448
26	0xbd3f1e98	-0.046660036
27	0xbdb3bc34	-0.08776131
28	0xbdcca3c8	-0.09992176
29	0xbe4741ee	-0.19458744
30	0x3e014772	0.1262491
31	0x3dd43050	0.103607774
